…
state {
phase: TRAIN
}
layer {
name: "train_data"
type: "Data"
top: "data"
include {
phase: TRAIN
}
transform_param {
mean_file: "/home/scu508/digits/digits/jobs/20161213-101330-681b/train_db/mean.binaryproto"
}
data_param {
source: "/home/scu508/digits/digits/jobs/20161213-101330-681b/train_db/features"
batch_size: 2
backend: LMDB
}
}
layer {
name: "train_label"
type: "Data"
top: "label"
include {
phase: TRAIN
}
data_param {
source: "/home/scu508/digits/digits/jobs/20161213-101330-681b/train_db/labels"
batch_size: 2
backend: LMDB
}
}
layer {
name: "train_transform"
type: "DetectNetTransformation"
bottom: "data"
bottom: "label"
top: "transformed_data"
top: "transformed_label"
include {
phase: TRAIN
}
transform_param {
mean_value: 127
}
detectnet_groundtruth_param {
stride: 16
scale_cvg: 0.4
gridbox_type: GRIDBOX_MIN
min_cvg_len: 20
coverage_type: RECTANGULAR
image_size_x: 1248
image_size_y: 384
obj_norm: true
crop_bboxes: true
object_class {
src: 1
dst: 0
}
}
detectnet_augmentation_param {
crop_prob: 1
shift_x: 32
shift_y: 32
scale_prob: 0.4
scale_min: 0.8
scale_max: 1.2
flip_prob: 0.5
rotation_prob: 0
max_rotate_degree: 5
hue_rotation_prob: 0.8
hue_rotation: 30
desaturation_prob: 0.8
desaturation_max: 0.8
}
}
layer {
name: "slice-label"
type: "Slice"
bottom: "transformed_label"
top: "foreground-label"
top: "bbox-label"
top: "size-label"
top: "obj-label"
top: "coverage-label"
slice_param {
slice_dim: 1
slice_point: 1
slice_point: 5
slice_point: 7
slice_point: 8
}
}
layer {
name: "coverage-block"
type: "Concat"
bottom: "foreground-label"
bottom: "foreground-label"
bottom: "foreground-label"
bottom: "foreground-label"
top: "coverage-block"
concat_param {
concat_dim: 1
}
}
layer {
name: "size-block"
type: "Concat"
bottom: "size-label"
bottom: "size-label"
top: "size-block"
concat_param {
concat_dim: 1
}
}
layer {
name: "obj-block"
type: "Concat"
bottom: "obj-label"
bottom: "obj-label"
bottom: "obj-label"
bottom: "obj-label"
top: "obj-block"
concat_param {
concat_dim: 1
}
}
layer {
name: "bb-label-norm"
type: "Eltwise"
bottom: "bbox-label"
bottom: "size-block"
top: "bbox-label-norm"
eltwise_param {
operation: PROD
}
}
layer {
name: "bb-obj-norm"
type: "Eltwise"
bottom: "bbox-label-norm"
bottom: "obj-block"
top: "bbox-obj-label-norm"
eltwise_param {
operation: PROD
}
}
layer {
name: "conv1/7x7_s2"
type: "Convolution"
bottom: "transformed_data"
top: "conv1/7x7_s2"
param {
lr_mult: 1
decay_mult: 1
}
param {
lr_mult: 2
decay_mult: 0
}
convolution_param {
num_output: 64
pad: 3
kernel_size: 7
stride: 2
weight_filler {
type: "xavier"
std: 0.1
}
bias_filler {
type: "constant"
value: 0.2
}
}
}
layer {
name: "conv1/relu_7x7"
type: "ReLU"
bottom: "conv1/7x7_s2"
top: "conv1/7x7_s2"
}
layer {
name: "pool1/3x3_s2"
type: "Pooling"
bottom: "conv1/7x7_s2"
top: "pool1/3x3_s2"
pooling_param {
pool: MAX
kernel_size: 3
stride: 2
}
}
layer {
name: "pool1/norm1"
type: "LRN"
bottom: "pool1/3x3_s2"
top: "pool1/norm1"
lrn_param {
local_size: 5
alpha: 0.0001
beta: 0.75
}
}
layer {
name: "conv2/3x3_reduce"
type: "Convolution"
bottom: "pool1/norm1"
top: "conv2/3x3_reduce"
param {
lr_mult: 1
decay_mult: 1
}
param {
lr_mult: 2
decay_mult: 0
}
convolution_param {
num_output: 64
kernel_size: 1
weight_filler {
type: "xavier"
std: 0.1
}
bias_filler {
type: "constant"
value: 0.2
}
}
}
layer {
name: "conv2/relu_3x3_reduce"
type: "ReLU"
bottom: "conv2/3x3_reduce"
top: "conv2/3x3_reduce"
}
layer {
name: "conv2/3x3"
type: "Convolution"
bottom: "conv2/3x3_reduce"
top: "conv2/3x3"
param {
lr_mult: 1
decay_mult: 1
}
param {
lr_mult: 2
decay_mult: 0
}
convolution_param {
num_output: 192
pad: 1
kernel_size: 3
weight_filler {
type: "xavier"
std: 0.03
}
bias_filler {
type: "constant"
value: 0.2
}
}
}
layer {
name: "conv2/relu_3x3"
type: "ReLU"
bottom: "conv2/3x3"
top: "conv2/3x3"
}
layer {
name: "conv2/norm2"
type: "LRN"
bottom: "conv2/3x3"
top: "conv2/norm2"
lrn_param {
local_size: 5
alpha: 0.0001
beta: 0.75
}
}
layer {
name: "pool2/3x3_s2"
type: "Pooling"
bottom: "conv2/norm2"
top: "pool2/3x3_s2"
pooling_param {
pool: MAX
kernel_size: 3
stride: 2
}
}
layer {
name: "inception_3a/1x1"
type: "Convolution"
bottom: "pool2/3x3_s2"
top: "inception_3a/1x1"
param {
lr_mult: 1
decay_mult: 1
}
param {
lr_mult: 2
decay_mult: 0
}
convolution_param {
num_output: 64
kernel_size: 1
weight_filler {
type: "xavier"
std: 0.03
}
bias_filler {
type: "constant"
value: 0.2
}
}
}
layer {
name: "inception_3a/relu_1x1"
type: "ReLU"
bottom: "inception_3a/1x1"
top: "inception_3a/1x1"
}
layer {
name: "inception_3a/3x3_reduce"
type: "Convolution"
bottom: "pool2/3x3_s2"
top: "inception_3a/3x3_reduce"
param {
lr_mult: 1
decay_mult: 1
}
param {
lr_mult: 2
decay_mult: 0
}
convolution_param {
num_output: 96
kernel_size: 1
weight_filler {
type: "xavier"
std: 0.09
}
bias_filler {
type: "constant"
value: 0.2
}
}
}
layer {
name: "inception_3a/relu_3x3_reduce"
type: "ReLU"
bottom: "inception_3a/3x3_reduce"
top: "inception_3a/3x3_reduce"
}
layer {
name: "inception_3a/3x3"
type: "Convolution"
bottom: "inception_3a/3x3_reduce"
top: "inception_3a/3x3"
param {
lr_mult: 1
decay_mult: 1
}
param {
lr_mult: 2
decay_mult: 0
}
convolution_param {
num_output: 128
pad: 1
kernel_size: 3
weight_filler {
type: "xavier"
std: 0.03
}
bias_filler {
type: "constant"
value: 0.2
}
}
}
layer {
name: "inception_3a/relu_3x3"
type: "ReLU"
bottom: "inception_3a/3x3"
top: "inception_3a/3x3"
}
layer {
name: "inception_3a/5x5_reduce"
type: "Convolution"
bottom: "pool2/3x3_s2"
top: "inception_3a/5x5_reduce"
param {
lr_mult: 1
decay_mult: 1
}
param {
lr_mult: 2
decay_mult: 0
}
convolution_param {
num_output: 16
kernel_size: 1
weight_filler {
type: "xavier"
std: 0.2
}
bias_filler {
type: "constant"
value: 0.2
}
}
}
layer {
name: "inception_3a/relu_5x5_reduce"
type: "ReLU"
bottom: "inception_3a/5x5_reduce"
top: "inception_3a/5x5_reduce"
}
layer {
name: "inception_3a/5x5"
type: "Convolution"
bottom: "inception_3a/5x5_reduce"
top: "inception_3a/5x5"
param {
lr_mult: 1
decay_mult: 1
}
param {
lr_mult: 2
decay_mult: 0
}
convolution_param {
num_output: 32
pad: 2
kernel_size: 5
weight_filler {
type: "xavier"
std: 0.03
}
bias_filler {
type: "constant"
value: 0.2
}
}
}
layer {
name: "inception_3a/relu_5x5"
type: "ReLU"
bottom: "inception_3a/5x5"
top: "inception_3a/5x5"
}
layer {
name: "inception_3a/pool"
type: "Pooling"
bottom: "pool2/3x3_s2"
top: "inception_3a/pool"
pooling_param {
pool: MAX
kernel_size: 3
stride: 1
pad: 1
}
}
layer {
name: "inception_3a/pool_proj"
type: "Convolution"
bottom: "inception_3a/pool"
top: "inception_3a/pool_proj"
param {
lr_mult: 1
decay_mult: 1
}
param {
lr_mult: 2
decay_mult: 0
}
convolution_param {
num_output: 32
kernel_size: 1
weight_filler {
type: "xavier"
std: 0.1
}
bias_filler {
type: "constant"
value: 0.2
}
}
}
layer {
name: "inception_3a/relu_pool_proj"
type: "ReLU"
bottom: "inception_3a/pool_proj"
top: "inception_3a/pool_proj"
}
layer {
name: "inception_3a/output"
type: "Concat"
bottom: "inception_3a/1x1"
bottom: "inception_3a/3x3"
bottom: "inception_3a/5x5"
bottom: "inception_3a/pool_proj"
top: "inception_3a/output"
}
layer {
name: "inception_3b/1x1"
type: "Convolution"
bottom: "inception_3a/output"
top: "inception_3b/1x1"
param {
lr_mult: 1
decay_mult: 1
}
param {
lr_mult: 2
decay_mult: 0
}
convolution_param {
num_output: 128
kernel_size: 1
weight_filler {
type: "xavier"
std: 0.03
}
bias_filler {
type: "constant"
value: 0.2
}
}
}
layer {
name: "inception_3b/relu_1x1"
type: "ReLU"
bottom: "inception_3b/1x1"
top: "inception_3b/1x1"
}
layer {
name: "inception_3b/3x3_reduce"
type: "Convolution"
bottom: "inception_3a/output"
top: "inception_3b/3x3_reduce"
param {
lr_mult: 1
decay_mult: 1
}
param {
lr_mult: 2
decay_mult: 0
}
convolution_param {
num_output: 128
kernel_size: 1
weight_filler {
type: "xavier"
std: 0.09
}
bias_filler {
type: "constant"
value: 0.2
}
}
}
layer {
name: "inception_3b/relu_3x3_reduce"
type: "ReLU"
bottom: "inception_3b/3x3_reduce"
top: "inception_3b/3x3_reduce"
}
layer {
name: "inception_3b/3x3"
type: "Convolution"
bottom: "inception_3b/3x3_reduce"
top: "inception_3b/3x3"
param {
lr_mult: 1
decay_mult: 1
}
param {
lr_mult: 2
decay_mult: 0
}
convolution_param {
num_output: 192
pad: 1
kernel_size: 3
weight_filler {
type: "xavier"
std: 0.03
}
bias_filler {
type: "constant"
value: 0.2
}
}
}
layer {
name: "inception_3b/relu_3x3"
type: "ReLU"
bottom: "inception_3b/3x3"
top: "inception_3b/3x3"
}
layer {
name: "inception_3b/5x5_reduce"
type: "Convolution"
bottom: "inception_3a/output"
top: "inception_3b/5x5_reduce"
param {
lr_mult: 1
decay_mult: 1
}
param {
lr_mult: 2
decay_mult: 0
}
convolution_param {
num_output: 32
kernel_size: 1
weight_filler {
type: "xavier"
std: 0.2
}
bias_filler {
type: "constant"
value: 0.2
}
}
}
layer {
name: "inception_3b/relu_5x5_reduce"
type: "ReLU"
bottom: "inception_3b/5x5_reduce"
top: "inception_3b/5x5_reduce"
}
layer {
name: "inception_3b/5x5"
type: "Convolution"
bottom: "inception_3b/5x5_reduce"
top: "inception_3b/5x5"
param {
lr_mult: 1
decay_mult: 1
}
param {
lr_mult: 2
decay_mult: 0
}
convolution_param {
num_output: 96
pad: 2
kernel_size: 5
weight_filler {
type: "xavier"
std: 0.03
}
bias_filler {
type: "constant"
value: 0.2
}
}
}
layer {
name: "inception_3b/relu_5x5"
type: "ReLU"
bottom: "inception_3b/5x5"
top: "inception_3b/5x5"
}
layer {
name: "inception_3b/pool"
type: "Pooling"
bottom: "inception_3a/output"
top: "inception_3b/pool"
pooling_param {
pool: MAX
kernel_size: 3
stride: 1
pad: 1
}
}
layer {
name: "inception_3b/pool_proj"
type: "Convolution"
bottom: "inception_3b/pool"
top: "inception_3b/pool_proj"
param {
lr_mult: 1
decay_mult: 1
}
param {
lr_mult: 2
decay_mult: 0
}
convolution_param {
num_output: 64
kernel_size: 1
weight_filler {
type: "xavier"
std: 0.1
}
bias_filler {
type: "constant"
value: 0.2
}
}
}
layer {
name: "inception_3b/relu_pool_proj"
type: "ReLU"
bottom: "inception_3b/pool_proj"
top: "inception_3b/pool_proj"
}
layer {
name: "inception_3b/output"
type: "Concat"
bottom: "inception_3b/1x1"
bottom: "inception_3b/3x3"
bottom: "inception_3b/5x5"
bottom: "inception_3b/pool_proj"
top: "inception_3b/output"
}
layer {
name: "pool3/3x3_s2"
type: "Pooling"
bottom: "inception_3b/output"
top: "pool3/3x3_s2"
pooling_param {
pool: MAX
kernel_size: 3
stride: 2
}
}
layer {
name: "inception_4a/1x1"
type: "Convolution"
bottom: "pool3/3x3_s2"
top: "inception_4a/1x1"
param {
lr_mult: 1
decay_mult: 1
}
param {
lr_mult: 2
decay_mult: 0
}
convolution_param {
num_output: 192
kernel_size: 1
weight_filler {
type: "xavier"
std: 0.03
}
bias_filler {
type: "constant"
value: 0.2
}
}
}
layer {
name: "inception_4a/relu_1x1"
type: "ReLU"
bottom: "inception_4a/1x1"
top: "inception_4a/1x1"
}
layer {
name: "inception_4a/3x3_reduce"
type: "Convolution"
bottom: "pool3/3x3_s2"
top: "inception_4a/3x3_reduce"
param {
lr_mult: 1
decay_mult: 1
}
param {
lr_mult: 2
decay_mult: 0
}
convolution_param {
num_output: 96
kernel_size: 1
weight_filler {
type: "xavier"
std: 0.09
}
bias_filler {
type: "constant"
value: 0.2
}
}
}
layer {
name: "inception_4a/relu_3x3_reduce"
type: "ReLU"
bottom: "inception_4a/3x3_reduce"
top: "inception_4a/3x3_reduce"
}
layer {
name: "inception_4a/3x3"
type: "Convolution"
bottom: "inception_4a/3x3_reduce"
top: "inception_4a/3x3"
param {
lr_mult: 1
decay_mult: 1
}
param {
lr_mult: 2
decay_mult: 0
}
convolution_param {
num_output: 208
pad: 1
kernel_size: 3
weight_filler {
type: "xavier"
std: 0.03
}
bias_filler {
type: "constant"
value: 0.2
}
}
}
layer {
name: "inception_4a/relu_3x3"
type: "ReLU"
bottom: "inception_4a/3x3"
top: "inception_4a/3x3"
}
layer {
name: "inception_4a/5x5_reduce"
type: "Convolution"
bottom: "pool3/3x3_s2"
top: "inception_4a/5x5_reduce"
param {
lr_mult: 1
decay_mult: 1
}
param {
lr_mult: 2
decay_mult: 0
}
convolution_param {
num_output: 16
kernel_size: 1
weight_filler {
type: "xavier"
std: 0.2
}
bias_filler {
type: "constant"
value: 0.2
}
}
}
layer {
name: "inception_4a/relu_5x5_reduce"
type: "ReLU"
bottom: "inception_4a/5x5_reduce"
top: "inception_4a/5x5_reduce"
}
layer {
name: "inception_4a/5x5"
type: "Convolution"
bottom: "inception_4a/5x5_reduce"
top: "inception_4a/5x5"
param {
lr_mult: 1
decay_mult: 1
}
param {
lr_mult: 2
decay_mult: 0
}
convolution_param {
num_output: 48
pad: 2
kernel_size: 5
weight_filler {
type: "xavier"
std: 0.03
}
bias_filler {
type: "constant"
value: 0.2
}
}
}
layer {
name: "inception_4a/relu_5x5"
type: "ReLU"
bottom: "inception_4a/5x5"
top: "inception_4a/5x5"
}
layer {
name: "inception_4a/pool"
type: "Pooling"
bottom: "pool3/3x3_s2"
top: "inception_4a/pool"
pooling_param {
pool: MAX
kernel_size: 3
stride: 1
pad: 1
}
}
layer {
name: "inception_4a/pool_proj"
type: "Convolution"
bottom: "inception_4a/pool"
top: "inception_4a/pool_proj"
param {
lr_mult: 1
decay_mult: 1
}
param {
lr_mult: 2
decay_mult: 0
}
convolution_param {
num_output: 64
kernel_size: 1
weight_filler {
type: "xavier"
std: 0.1
}
bias_filler {
type: "constant"
value: 0.2
}
}
}
layer {
name: "inception_4a/relu_pool_proj"
type: "ReLU"
bottom: "inception_4a/pool_proj"
top: "inception_4a/pool_proj"
}
layer {
name: "inception_4a/output"
type: "Concat"
bottom: "inception_4a/1x1"
bottom: "inception_4a/3x3"
bottom: "inception_4a/5x5"
bottom: "inception_4a/pool_proj"
top: "inception_4a/output"
}
layer {
name: "inception_4b/1x1"
type: "Convolution"
bottom: "inception_4a/output"
top: "inception_4b/1x1"
param {
lr_mult: 1
decay_mult: 1
}
param {
lr_mult: 2
decay_mult: 0
}
convolution_param {
num_output: 160
kernel_size: 1
weight_filler {
type: "xavier"
std: 0.03
}
bias_filler {
type: "constant"
value: 0.2
}
}
}
layer {
name: "inception_4b/relu_1x1"
type: "ReLU"
bottom: "inception_4b/1x1"
top: "inception_4b/1x1"
}
layer {
name: "inception_4b/3x3_reduce"
type: "Convolution"
bottom: "inception_4a/output"
top: "inception_4b/3x3_reduce"
param {
lr_mult: 1
decay_mult: 1
}
param {
lr_mult: 2
decay_mult: 0
}
convolution_param {
num_output: 112
kernel_size: 1
weight_filler {
type: "xavier"
std: 0.09
}
bias_filler {
type: "constant"
value: 0.2
}
}
}
layer {
name: "inception_4b/relu_3x3_reduce"
type: "ReLU"
bottom: "inception_4b/3x3_reduce"
top: "inception_4b/3x3_reduce"
}
layer {
name: "inception_4b/3x3"
type: "Convolution"
bottom: "inception_4b/3x3_reduce"
top: "inception_4b/3x3"
param {
lr_mult: 1
decay_mult: 1
}
param {
lr_mult: 2
decay_mult: 0
}
convolution_param {
num_output: 224
pad: 1
kernel_size: 3
weight_filler {
type: "xavier"
std: 0.03
}
bias_filler {
type: "constant"
value: 0.2
}
}
}
layer {
name: "inception_4b/relu_3x3"
type: "ReLU"
bottom: "inception_4b/3x3"
top: "inception_4b/3x3"
}
layer {
name: "inception_4b/5x5_reduce"
type: "Convolution"
bottom: "inception_4a/output"
top: "inception_4b/5x5_reduce"
param {
lr_mult: 1
decay_mult: 1
}
param {
lr_mult: 2
decay_mult: 0
}
convolution_param {
num_output: 24
kernel_size: 1
weight_filler {
type: "xavier"
std: 0.2
}
bias_filler {
type: "constant"
value: 0.2
}
}
}
layer {
name: "inception_4b/relu_5x5_reduce"
type: "ReLU"
bottom: "inception_4b/5x5_reduce"
top: "inception_4b/5x5_reduce"
}
layer {
name: "inception_4b/5x5"
type: "Convolution"
bottom: "inception_4b/5x5_reduce"
top: "inception_4b/5x5"
param {
lr_mult: 1
decay_mult: 1
}
param {
lr_mult: 2
decay_mult: 0
}
convolution_param {
num_output: 64
pad: 2
kernel_size: 5
weight_filler {
type: "xavier"
std: 0.03
}
bias_filler {
type: "constant"
value: 0.2
}
}
}
layer {
name: "inception_4b/relu_5x5"
type: "ReLU"
bottom: "inception_4b/5x5"
top: "inception_4b/5x5"
}
layer {
name: "inception_4b/pool"
type: "Pooling"
bottom: "inception_4a/output"
top: "inception_4b/pool"
pooling_param {
pool: MAX
kernel_size: 3
stride: 1
pad: 1
}
}
layer {
name: "inception_4b/pool_proj"
type: "Convolution"
bottom: "inception_4b/pool"
top: "inception_4b/pool_proj"
param {
lr_mult: 1
decay_mult: 1
}
param {
lr_mult: 2
decay_mult: 0
}
convolution_param {
num_output: 64
kernel_size: 1
weight_filler {
type: "xavier"
std: 0.1
}
bias_filler {
type: "constant"
value: 0.2
}
}
}
layer {
name: "inception_4b/relu_pool_proj"
type: "ReLU"
bottom: "inception_4b/pool_proj"
top: "inception_4b/pool_proj"
}
layer {
name: "inception_4b/output"
type: "Concat"
bottom: "inception_4b/1x1"
bottom: "inception_4b/3x3"
bottom: "inception_4b/5x5"
bottom: "inception_4b/pool_proj"
top: "inception_4b/output"
}
layer {
name: "inception_4c/1x1"
type: "Convolution"
bottom: "inception_4b/output"
top: "inception_4c/1x1"
param {
lr_mult: 1
decay_mult: 1
}
param {
lr_mult: 2
decay_mult: 0
}
convolution_param {
num_output: 128
kernel_size: 1
weight_filler {
type: "xavier"
std: 0.03
}
bias_filler {
type: "constant"
value: 0.2
}
}
}
layer {
name: "inception_4c/relu_1x1"
type: "ReLU"
bottom: "inception_4c/1x1"
top: "inception_4c/1x1"
}
layer {
name: "inception_4c/3x3_reduce"
type: "Convolution"
bottom: "inception_4b/output"
top: "inception_4c/3x3_reduce"
param {
lr_mult: 1
decay_mult: 1
}
param {
lr_mult: 2
decay_mult: 0
}
convolution_param {
num_output: 128
kernel_size: 1
weight_filler {
type: "xavier"
std: 0.09
}
bias_filler {
type: "constant"
value: 0.2
}
}
}
layer {
name: "inception_4c/relu_3x3_reduce"
type: "ReLU"
bottom: "inception_4c/3x3_reduce"
top: "inception_4c/3x3_reduce"
}
layer {
name: "inception_4c/3x3"
type: "Convolution"
bottom: "inception_4c/3x3_reduce"
top: "inception_4c/3x3"
param {
lr_mult: 1
decay_mult: 1
}
param {
lr_mult: 2
decay_mult: 0
}
convolution_param {
num_output: 256
pad: 1
kernel_size: 3
weight_filler {
type: "xavier"
std: 0.03
}
bias_filler {
type: "constant"
value: 0.2
}
}
}
layer {
name: "inception_4c/relu_3x3"
type: "ReLU"
bottom: "inception_4c/3x3"
top: "inception_4c/3x3"
}
layer {
name: "inception_4c/5x5_reduce"
type: "Convolution"
bottom: "inception_4b/output"
top: "inception_4c/5x5_reduce"
param {
lr_mult: 1
decay_mult: 1
}
param {
lr_mult: 2
decay_mult: 0
}
convolution_param {
num_output: 24
kernel_size: 1
weight_filler {
type: "xavier"
std: 0.2
}
bias_filler {
type: "constant"
value: 0.2
}
}
}
layer {
name: "inception_4c/relu_5x5_reduce"
type: "ReLU"
bottom: "inception_4c/5x5_reduce"
top: "inception_4c/5x5_reduce"
}
layer {
name: "inception_4c/5x5"
type: "Convolution"
bottom: "inception_4c/5x5_reduce"
top: "inception_4c/5x5"
param {
lr_mult: 1
decay_mult: 1
}
param {
lr_mult: 2
decay_mult: 0
}
convolution_param {
num_output: 64
pad: 2
kernel_size: 5
weight_filler {
type: "xavier"
std: 0.03
}
bias_filler {
type: "constant"
value: 0.2
}
}
}
layer {
name: "inception_4c/relu_5x5"
type: "ReLU"
bottom: "inception_4c/5x5"
top: "inception_4c/5x5"
}
layer {
name: "inception_4c/pool"
type: "Pooling"
bottom: "inception_4b/output"
top: "inception_4c/pool"
pooling_param {
pool: MAX
kernel_size: 3
stride: 1
pad: 1
}
}
layer {
name: "inception_4c/pool_proj"
type: "Convolution"
bottom: "inception_4c/pool"
top: "inception_4c/pool_proj"
param {
lr_mult: 1
decay_mult: 1
}
param {
lr_mult: 2
decay_mult: 0
}
convolution_param {
num_output: 64
kernel_size: 1
weight_filler {
type: "xavier"
std: 0.1
}
bias_filler {
type: "constant"
value: 0.2
}
}
}
layer {
name: "inception_4c/relu_pool_proj"
type: "ReLU"
bottom: "inception_4c/pool_proj"
top: "inception_4c/pool_proj"
}
layer {
name: "inception_4c/output"
type: "Concat"
bottom: "inception_4c/1x1"
bottom: "inception_4c/3x3"
bottom: "inception_4c/5x5"
bottom: "inception_4c/pool_proj"
top: "inception_4c/output"
}
layer {
name: "inception_4d/1x1"
type: "Convolution"
bottom: "inception_4c/output"
top: "inception_4d/1x1"
param {
lr_mult: 1
decay_mult: 1
}
param {
lr_mult: 2
decay_mult: 0
}
convolution_param {
num_output: 112
kernel_size: 1
weight_filler {
type: "xavier"
std: 0.1
}
bias_filler {
type: "constant"
value: 0.2
}
}
}
layer {
name: "inception_4d/relu_1x1"
type: "ReLU"
bottom: "inception_4d/1x1"
top: "inception_4d/1x1"
}
layer {
name: "inception_4d/3x3_reduce"
type: "Convolution"
bottom: "inception_4c/output"
top: "inception_4d/3x3_reduce"
param {
lr_mult: 1
decay_mult: 1
}
param {
lr_mult: 2
decay_mult: 0
}
convolution_param {
num_output: 144
kernel_size: 1
weight_filler {
type: "xavier"
std: 0.1
}
bias_filler {
type: "constant"
value: 0.2
}
}
}
layer {
name: "inception_4d/relu_3x3_reduce"
type: "ReLU"
bottom: "inception_4d/3x3_reduce"
top: "inception_4d/3x3_reduce"
}
layer {
name: "inception_4d/3x3"
type: "Convolution"
bottom: "inception_4d/3x3_reduce"
top: "inception_4d/3x3"
param {
lr_mult: 1
decay_mult: 1
}
param {
lr_mult: 2
decay_mult: 0
}
convolution_param {
num_output: 288
pad: 1
kernel_size: 3
weight_filler {
type: "xavier"
std: 0.1
}
bias_filler {
type: "constant"
value: 0.2
}
}
}
layer {
name: "inception_4d/relu_3x3"
type: "ReLU"
bottom: "inception_4d/3x3"
top: "inception_4d/3x3"
}
layer {
name: "inception_4d/5x5_reduce"
type: "Convolution"
bottom: "inception_4c/output"
top: "inception_4d/5x5_reduce"
param {
lr_mult: 1
decay_mult: 1
}
param {
lr_mult: 2
decay_mult: 0
}
convolution_param {
num_output: 32
kernel_size: 1
weight_filler {
type: "xavier"
std: 0.1
}
bias_filler {
type: "constant"
value: 0.2
}
}
}
layer {
name: "inception_4d/relu_5x5_reduce"
type: "ReLU"
bottom: "inception_4d/5x5_reduce"
top: "inception_4d/5x5_reduce"
}
layer {
name: "inception_4d/5x5"
type: "Convolution"
bottom: "inception_4d/5x5_reduce"
top: "inception_4d/5x5"
param {
lr_mult: 1
decay_mult: 1
}
param {
lr_mult: 2
decay_mult: 0
}
convolution_param {
num_output: 64
pad: 2
kernel_size: 5
weight_filler {
type: "xavier"
std: 0.1
}
bias_filler {
type: "constant"
value: 0.2
}
}
}
layer {
name: "inception_4d/relu_5x5"
type: "ReLU"
bottom: "inception_4d/5x5"
top: "inception_4d/5x5"
}
layer {
name: "inception_4d/pool"
type: "Pooling"
bottom: "inception_4c/output"
top: "inception_4d/pool"
pooling_param {
pool: MAX
kernel_size: 3
stride: 1
pad: 1
}
}
layer {
name: "inception_4d/pool_proj"
type: "Convolution"
bottom: "inception_4d/pool"
top: "inception_4d/pool_proj"
param {
lr_mult: 1
decay_mult: 1
}
param {
lr_mult: 2
decay_mult: 0
}
convolution_param {
num_output: 64
kernel_size: 1
weight_filler {
type: "xavier"
std: 0.1
}
bias_filler {
type: "constant"
value: 0.2
}
}
}
layer {
name: "inception_4d/relu_pool_proj"
type: "ReLU"
bottom: "inception_4d/pool_proj"
top: "inception_4d/pool_proj"
}
layer {
name: "inception_4d/output"
type: "Concat"
bottom: "inception_4d/1x1"
bottom: "inception_4d/3x3"
bottom: "inception_4d/5x5"
bottom: "inception_4d/pool_proj"
top: "inception_4d/output"
}
layer {
name: "inception_4e/1x1"
type: "Convolution"
bottom: "inception_4d/output"
top: "inception_4e/1x1"
param {
lr_mult: 1
decay_mult: 1
}
param {
lr_mult: 2
decay_mult: 0
}
convolution_param {
num_output: 256
kernel_size: 1
weight_filler {
type: "xavier"
std: 0.03
}
bias_filler {
type: "constant"
value: 0.2
}
}
}
layer {
name: "inception_4e/relu_1x1"
type: "ReLU"
bottom: "inception_4e/1x1"
top: "inception_4e/1x1"
}
layer {
name: "inception_4e/3x3_reduce"
type: "Convolution"
bottom: "inception_4d/output"
top: "inception_4e/3x3_reduce"
param {
lr_mult: 1
decay_mult: 1
}
param {
lr_mult: 2
decay_mult: 0
}
convolution_param {
num_output: 160
kernel_size: 1
weight_filler {
type: "xavier"
std: 0.09
}
bias_filler {
type: "constant"
value: 0.2
}
}
}
layer {
name: "inception_4e/relu_3x3_reduce"
type: "ReLU"
bottom: "inception_4e/3x3_reduce"
top: "inception_4e/3x3_reduce"
}
layer {
name: "inception_4e/3x3"
type: "Convolution"
bottom: "inception_4e/3x3_reduce"
top: "inception_4e/3x3"
param {
lr_mult: 1
decay_mult: 1
}
param {
lr_mult: 2
decay_mult: 0
}
convolution_param {
num_output: 320
pad: 1
kernel_size: 3
weight_filler {
type: "xavier"
std: 0.03
}
bias_filler {
type: "constant"
value: 0.2
}
}
}
layer {
name: "inception_4e/relu_3x3"
type: "ReLU"
bottom: "inception_4e/3x3"
top: "inception_4e/3x3"
}
layer {
name: "inception_4e/5x5_reduce"
type: "Convolution"
bottom: "inception_4d/output"
top: "inception_4e/5x5_reduce"
param {
lr_mult: 1
decay_mult: 1
}
param {
lr_mult: 2
decay_mult: 0
}
convolution_param {
num_output: 32
kernel_size: 1
weight_filler {
type: "xavier"
std: 0.2
}
bias_filler {
type: "constant"
value: 0.2
}
}
}
layer {
name: "inception_4e/relu_5x5_reduce"
type: "ReLU"
bottom: "inception_4e/5x5_reduce"
top: "inception_4e/5x5_reduce"
}
layer {
name: "inception_4e/5x5"
type: "Convolution"
bottom: "inception_4e/5x5_reduce"
top: "inception_4e/5x5"
param {
lr_mult: 1
decay_mult: 1
}
param {
lr_mult: 2
decay_mult: 0
}
convolution_param {
num_output: 128
pad: 2
kernel_size: 5
weight_filler {
type: "xavier"
std: 0.03
}
bias_filler {
type: "constant"
value: 0.2
}
}
}
layer {
name: "inception_4e/relu_5x5"
type: "ReLU"
bottom: "inception_4e/5x5"
top: "inception_4e/5x5"
}
layer {
name: "inception_4e/pool"
type: "Pooling"
bottom: "inception_4d/output"
top: "inception_4e/pool"
pooling_param {
pool: MAX
kernel_size: 3
stride: 1
pad: 1
}
}
layer {
name: "inception_4e/pool_proj"
type: "Convolution"
bottom: "inception_4e/pool"
top: "inception_4e/pool_proj"
param {
lr_mult: 1
decay_mult: 1
}
param {
lr_mult: 2
decay_mult: 0
}
convolution_param {
num_output: 128
kernel_size: 1
weight_filler {
type: "xavier"
std: 0.1
}
bias_filler {
type: "constant"
value: 0.2
}
}
}
layer {
name: "incep
I1213 10:40:07.644685 10744 layer_factory.hpp:77] Creating layer train_data
I1213 10:40:07.646703 10744 net.cpp:94] Creating Layer train_data
I1213 10:40:07.646731 10744 net.cpp:409] train_data -> data
I1213 10:40:07.646785 10744 data_transformer.cpp:25] Loading mean file from: /home/scu508/digits/digits/jobs/20161213-101330-681b/train_db/mean.binaryproto
I1213 10:40:07.648258 10751 db_lmdb.cpp:35] Opened lmdb /home/scu508/digits/digits/jobs/20161213-101330-681b/train_db/features
I1213 10:40:07.728240 10744 data_layer.cpp:78] ReshapePrefetch 2, 3, 384, 1248
I1213 10:40:07.728332 10744 data_layer.cpp:83] output data size: 2,3,384,1248
I1213 10:40:07.753790 10744 net.cpp:144] Setting up train_data
I1213 10:40:07.753861 10744 net.cpp:151] Top shape: 2 3 384 1248 (2875392)
I1213 10:40:07.753871 10744 net.cpp:159] Memory required for data: 11501568
I1213 10:40:07.753892 10744 layer_factory.hpp:77] Creating layer train_label
I1213 10:40:07.755787 10744 net.cpp:94] Creating Layer train_label
I1213 10:40:07.755842 10744 net.cpp:409] train_label -> label
I1213 10:40:07.756646 10785 db_lmdb.cpp:35] Opened lmdb /home/scu508/digits/digits/jobs/20161213-101330-681b/train_db/labels
I1213 10:40:07.756803 10744 data_layer.cpp:78] ReshapePrefetch 2, 1, 25, 16
I1213 10:40:07.756870 10744 data_layer.cpp:83] output data size: 2,1,25,16
I1213 10:40:07.758785 10744 net.cpp:144] Setting up train_label
I1213 10:40:07.758808 10744 net.cpp:151] Top shape: 2 1 25 16 (800)
I1213 10:40:07.758816 10744 net.cpp:159] Memory required for data: 11504768
I1213 10:40:07.758826 10744 layer_factory.hpp:77] Creating layer train_transform
I1213 10:40:07.758867 10744 net.cpp:94] Creating Layer train_transform
I1213 10:40:07.758880 10744 net.cpp:435] train_transform <- data
I1213 10:40:07.758898 10744 net.cpp:435] train_transform <- label
I1213 10:40:07.758913 10744 net.cpp:409] train_transform -> transformed_data
I1213 10:40:07.758936 10744 net.cpp:409] train_transform -> transformed_label
I1213 10:40:07.759380 10744 net.cpp:144] Setting up train_transform
I1213 10:40:07.759402 10744 net.cpp:151] Top shape: 2 3 384 1248 (2875392)
I1213 10:40:07.759413 10744 net.cpp:151] Top shape: 2 9 24 78 (33696)
I1213 10:40:07.759419 10744 net.cpp:159] Memory required for data: 23141120
I1213 10:40:07.759428 10744 layer_factory.hpp:77] Creating layer slice-label
I1213 10:40:07.759443 10744 net.cpp:94] Creating Layer slice-label
I1213 10:40:07.759451 10744 net.cpp:435] slice-label <- transformed_label
I1213 10:40:07.759464 10744 net.cpp:409] slice-label -> foreground-label
I1213 10:40:07.759482 10744 net.cpp:409] slice-label -> bbox-label
I1213 10:40:07.759495 10744 net.cpp:409] slice-label -> size-label
I1213 10:40:07.759507 10744 net.cpp:409] slice-label -> obj-label
I1213 10:40:07.759518 10744 net.cpp:409] slice-label -> coverage-label
I1213 10:40:07.759626 10744 net.cpp:144] Setting up slice-label
I1213 10:40:07.759641 10744 net.cpp:151] Top shape: 2 1 24 78 (3744)
I1213 10:40:07.759651 10744 net.cpp:151] Top shape: 2 4 24 78 (14976)
I1213 10:40:07.759660 10744 net.cpp:151] Top shape: 2 2 24 78 (7488)
I1213 10:40:07.759667 10744 net.cpp:151] Top shape: 2 1 24 78 (3744)
I1213 10:40:07.759680 10744 net.cpp:151] Top shape: 2 1 24 78 (3744)
I1213 10:40:07.759686 10744 net.cpp:159] Memory required for data: 23275904
I1213 10:40:07.759694 10744 layer_factory.hpp:77] Creating layer foreground-label_slice-label_0_split
I1213 10:40:07.759709 10744 net.cpp:94] Creating Layer foreground-label_slice-label_0_split
I1213 10:40:07.759717 10744 net.cpp:435] foreground-label_slice-label_0_split <- foreground-label
I1213 10:40:07.759729 10744 net.cpp:409] foreground-label_slice-label_0_split -> foreground-label_slice-label_0_split_0
I1213 10:40:07.759742 10744 net.cpp:409] foreground-label_slice-label_0_split -> foreground-label_slice-label_0_split_1
I1213 10:40:07.759753 10744 net.cpp:409] foreground-label_slice-label_0_split -> foreground-label_slice-label_0_split_2
I1213 10:40:07.759765 10744 net.cpp:409] foreground-label_slice-label_0_split -> foreground-label_slice-label_0_split_3
I1213 10:40:07.760387 10744 net.cpp:144] Setting up foreground-label_slice-label_0_split
I1213 10:40:07.760404 10744 net.cpp:151] Top shape: 2 1 24 78 (3744)
I1213 10:40:07.760413 10744 net.cpp:151] Top shape: 2 1 24 78 (3744)
I1213 10:40:07.760422 10744 net.cpp:151] Top shape: 2 1 24 78 (3744)
I1213 10:40:07.760431 10744 net.cpp:151] Top shape: 2 1 24 78 (3744)
I1213 10:40:07.760437 10744 net.cpp:159] Memory required for data: 23335808
I1213 10:40:07.760445 10744 layer_factory.hpp:77] Creating layer size-label_slice-label_2_split
I1213 10:40:07.760457 10744 net.cpp:94] Creating Layer size-label_slice-label_2_split
I1213 10:40:07.760465 10744 net.cpp:435] size-label_slice-label_2_split <- size-label
I1213 10:40:07.760488 10744 net.cpp:409] size-label_slice-label_2_split -> size-label_slice-label_2_split_0
I1213 10:40:07.760500 10744 net.cpp:409] size-label_slice-label_2_split -> size-label_slice-label_2_split_1
I1213 10:40:07.760555 10744 net.cpp:144] Setting up size-label_slice-label_2_split
I1213 10:40:07.760586 10744 net.cpp:151] Top shape: 2 2 24 78 (7488)
I1213 10:40:07.760596 10744 net.cpp:151] Top shape: 2 2 24 78 (7488)
I1213 10:40:07.760602 10744 net.cpp:159] Memory required for data: 23395712
I1213 10:40:07.760609 10744 layer_factory.hpp:77] Creating layer obj-label_slice-label_3_split
I1213 10:40:07.760622 10744 net.cpp:94] Creating Layer obj-label_slice-label_3_split
I1213 10:40:07.760629 10744 net.cpp:435] obj-label_slice-label_3_split <- obj-label
I1213 10:40:07.760642 10744 net.cpp:409] obj-label_slice-label_3_split -> obj-label_slice-label_3_split_0
I1213 10:40:07.760654 10744 net.cpp:409] obj-label_slice-label_3_split -> obj-label_slice-label_3_split_1
I1213 10:40:07.760668 10744 net.cpp:409] obj-label_slice-label_3_split -> obj-label_slice-label_3_split_2
I1213 10:40:07.760680 10744 net.cpp:409] obj-label_slice-label_3_split -> obj-label_slice-label_3_split_3
I1213 10:40:07.760821 10744 net.cpp:144] Setting up obj-label_slice-label_3_split
I1213 10:40:07.760838 10744 net.cpp:151] Top shape: 2 1 24 78 (3744)
I1213 10:40:07.760848 10744 net.cpp:151] Top shape: 2 1 24 78 (3744)
I1213 10:40:07.760857 10744 net.cpp:151] Top shape: 2 1 24 78 (3744)
I1213 10:40:07.760865 10744 net.cpp:151] Top shape: 2 1 24 78 (3744)
I1213 10:40:07.760872 10744 net.cpp:159] Memory required for data: 23455616
I1213 10:40:07.760880 10744 layer_factory.hpp:77] Creating layer coverage-block
I1213 10:40:07.760896 10744 net.cpp:94] Creating Layer coverage-block
I1213 10:40:07.760905 10744 net.cpp:435] coverage-block <- foreground-label_slice-label_0_split_0
I1213 10:40:07.760915 10744 net.cpp:435] coverage-block <- foreground-label_slice-label_0_split_1
I1213 10:40:07.760923 10744 net.cpp:435] coverage-block <- foreground-label_slice-label_0_split_2
I1213 10:40:07.760931 10744 net.cpp:435] coverage-block <- foreground-label_slice-label_0_split_3
I1213 10:40:07.760942 10744 net.cpp:409] coverage-block -> coverage-block
I1213 10:40:07.760989 10744 net.cpp:144] Setting up coverage-block
I1213 10:40:07.761003 10744 net.cpp:151] Top shape: 2 4 24 78 (14976)
I1213 10:40:07.761013 10744 net.cpp:159] Memory required for data: 23515520
I1213 10:40:07.761020 10744 layer_factory.hpp:77] Creating layer size-block
I1213 10:40:07.761034 10744 net.cpp:94] Creating Layer size-block
I1213 10:40:07.761041 10744 net.cpp:435] size-block <- size-label_slice-label_2_split_0
I1213 10:40:07.761051 10744 net.cpp:435] size-block <- size-label_slice-label_2_split_1
I1213 10:40:07.761062 10744 net.cpp:409] size-block -> size-block
I1213 10:40:07.761101 10744 net.cpp:144] Setting up size-block
I1213 10:40:07.761114 10744 net.cpp:151] Top shape: 2 4 24 78 (14976)
I1213 10:40:07.761121 10744 net.cpp:159] Memory required for data: 23575424
I1213 10:40:07.761129 10744 layer_factory.hpp:77] Creating layer size-block_size-block_0_split
I1213 10:40:07.761140 10744 net.cpp:94] Creating Layer size-block_size-block_0_split
I1213 10:40:07.761147 10744 net.cpp:435] size-block_size-block_0_split <- size-block
I1213 10:40:07.761158 10744 net.cpp:409] size-block_size-block_0_split -> size-block_size-block_0_split_0
I1213 10:40:07.761171 10744 net.cpp:409] size-block_size-block_0_split -> size-block_size-block_0_split_1
I1213 10:40:07.761221 10744 net.cpp:144] Setting up size-block_size-block_0_split
I1213 10:40:07.761235 10744 net.cpp:151] Top shape: 2 4 24 78 (14976)
I1213 10:40:07.761243 10744 net.cpp:151] Top shape: 2 4 24 78 (14976)
I1213 10:40:07.761250 10744 net.cpp:159] Memory required for data: 23695232
I1213 10:40:07.761260 10744 layer_factory.hpp:77] Creating layer obj-block
I1213 10:40:07.761271 10744 net.cpp:94] Creating Layer obj-block
I1213 10:40:07.761279 10744 net.cpp:435] obj-block <- obj-label_slice-label_3_split_0
I1213 10:40:07.761288 10744 net.cpp:435] obj-block <- obj-label_slice-label_3_split_1
I1213 10:40:07.761297 10744 net.cpp:435] obj-block <- obj-label_slice-label_3_split_2
I1213 10:40:07.761306 10744 net.cpp:435] obj-block <- obj-label_slice-label_3_split_3
I1213 10:40:07.761322 10744 net.cpp:409] obj-block -> obj-block
I1213 10:40:07.761376 10744 net.cpp:144] Setting up obj-block
I1213 10:40:07.761390 10744 net.cpp:151] Top shape: 2 4 24 78 (14976)
I1213 10:40:07.761397 10744 net.cpp:159] Memory required for data: 23755136
I1213 10:40:07.761404 10744 layer_factory.hpp:77] Creating layer obj-block_obj-block_0_split
I1213 10:40:07.761415 10744 net.cpp:94] Creating Layer obj-block_obj-block_0_split
I1213 10:40:07.761422 10744 net.cpp:435] obj-block_obj-block_0_split <- obj-block
I1213 10:40:07.761435 10744 net.cpp:409] obj-block_obj-block_0_split -> obj-block_obj-block_0_split_0
I1213 10:40:07.761446 10744 net.cpp:409] obj-block_obj-block_0_split -> obj-block_obj-block_0_split_1
I1213 10:40:07.761494 10744 net.cpp:144] Setting up obj-block_obj-block_0_split
I1213 10:40:07.761507 10744 net.cpp:151] Top shape: 2 4 24 78 (14976)
I1213 10:40:07.761517 10744 net.cpp:151] Top shape: 2 4 24 78 (14976)
I1213 10:40:07.761523 10744 net.cpp:159] Memory required for data: 23874944
I1213 10:40:07.761529 10744 layer_factory.hpp:77] Creating layer bb-label-norm
I1213 10:40:07.761543 10744 net.cpp:94] Creating Layer bb-label-norm
I1213 10:40:07.761613 10744 net.cpp:435] bb-label-norm <- bbox-label
I1213 10:40:07.761623 10744 net.cpp:435] bb-label-norm <- size-block_size-block_0_split_0
I1213 10:40:07.761634 10744 net.cpp:409] bb-label-norm -> bbox-label-norm
I1213 10:40:07.761690 10744 net.cpp:144] Setting up bb-label-norm
I1213 10:40:07.761705 10744 net.cpp:151] Top shape: 2 4 24 78 (14976)
I1213 10:40:07.761711 10744 net.cpp:159] Memory required for data: 23934848
I1213 10:40:07.761719 10744 layer_factory.hpp:77] Creating layer bb-obj-norm
I1213 10:40:07.761730 10744 net.cpp:94] Creating Layer bb-obj-norm
I1213 10:40:07.761739 10744 net.cpp:435] bb-obj-norm <- bbox-label-norm
I1213 10:40:07.761747 10744 net.cpp:435] bb-obj-norm <- obj-block_obj-block_0_split_0
I1213 10:40:07.761759 10744 net.cpp:409] bb-obj-norm -> bbox-obj-label-norm
I1213 10:40:07.761793 10744 net.cpp:144] Setting up bb-obj-norm
I1213 10:40:07.761806 10744 net.cpp:151] Top shape: 2 4 24 78 (14976)
I1213 10:40:07.761812 10744 net.cpp:159] Memory required for data: 23994752
I1213 10:40:07.761821 10744 layer_factory.hpp:77] Creating layer conv1/7x7_s2
I1213 10:40:07.761848 10744 net.cpp:94] Creating Layer conv1/7x7_s2
I1213 10:40:07.761857 10744 net.cpp:435] conv1/7x7_s2 <- transformed_data
I1213 10:40:07.761868 10744 net.cpp:409] conv1/7x7_s2 -> conv1/7x7_s2
I1213 10:40:07.765178 10744 net.cpp:144] Setting up conv1/7x7_s2
I1213 10:40:07.765202 10744 net.cpp:151] Top shape: 2 64 192 624 (15335424)
I1213 10:40:07.765210 10744 net.cpp:159] Memory required for data: 85336448
I1213 10:40:07.765235 10744 layer_factory.hpp:77] Creating layer conv1/relu_7x7
I1213 10:40:07.765249 10744 net.cpp:94] Creating Layer conv1/relu_7x7
I1213 10:40:07.765259 10744 net.cpp:435] conv1/relu_7x7 <- conv1/7x7_s2
I1213 10:40:07.765269 10744 net.cpp:396] conv1/relu_7x7 -> conv1/7x7_s2 (in-place)
I1213 10:40:07.765292 10744 net.cpp:144] Setting up conv1/relu_7x7
I1213 10:40:07.765303 10744 net.cpp:151] Top shape: 2 64 192 624 (15335424)
I1213 10:40:07.765311 10744 net.cpp:159] Memory required for data: 146678144
I1213 10:40:07.765317 10744 layer_factory.hpp:77] Creating layer pool1/3x3_s2
I1213 10:40:07.765333 10744 net.cpp:94] Creating Layer pool1/3x3_s2
I1213 10:40:07.765341 10744 net.cpp:435] pool1/3x3_s2 <- conv1/7x7_s2
I1213 10:40:07.765352 10744 net.cpp:409] pool1/3x3_s2 -> pool1/3x3_s2
I1213 10:40:07.765431 10744 net.cpp:144] Setting up pool1/3x3_s2
I1213 10:40:07.765447 10744 net.cpp:151] Top shape: 2 64 96 312 (3833856)
I1213 10:40:07.765455 10744 net.cpp:159] Memory required for data: 162013568
I1213 10:40:07.765462 10744 layer_factory.hpp:77] Creating layer pool1/norm1
I1213 10:40:07.765482 10744 net.cpp:94] Creating Layer pool1/norm1
I1213 10:40:07.765491 10744 net.cpp:435] pool1/norm1 <- pool1/3x3_s2
I1213 10:40:07.765502 10744 net.cpp:409] pool1/norm1 -> pool1/norm1
I1213 10:40:07.765568 10744 net.cpp:144] Setting up pool1/norm1
I1213 10:40:07.765583 10744 net.cpp:151] Top shape: 2 64 96 312 (3833856)
I1213 10:40:07.765607 10744 net.cpp:159] Memory required for data: 177348992
I1213 10:40:07.765616 10744 layer_factory.hpp:77] Creating layer conv2/3x3_reduce
I1213 10:40:07.765633 10744 net.cpp:94] Creating Layer conv2/3x3_reduce
I1213 10:40:07.765642 10744 net.cpp:435] conv2/3x3_reduce <- pool1/norm1
I1213 10:40:07.765655 10744 net.cpp:409] conv2/3x3_reduce -> conv2/3x3_reduce
I1213 10:40:07.768735 10744 net.cpp:144] Setting up conv2/3x3_reduce
I1213 10:40:07.768759 10744 net.cpp:151] Top shape: 2 64 96 312 (3833856)
I1213 10:40:07.768766 10744 net.cpp:159] Memory required for data: 192684416
I1213 10:40:07.768784 10744 layer_factory.hpp:77] Creating layer conv2/relu_3x3_reduce
I1213 10:40:07.768796 10744 net.cpp:94] Creating Layer conv2/relu_3x3_reduce
I1213 10:40:07.768805 10744 net.cpp:435] conv2/relu_3x3_reduce <- conv2/3x3_reduce
I1213 10:40:07.768816 10744 net.cpp:396] conv2/relu_3x3_reduce -> conv2/3x3_reduce (in-place)
I1213 10:40:07.768831 10744 net.cpp:144] Setting up conv2/relu_3x3_reduce
I1213 10:40:07.768841 10744 net.cpp:151] Top shape: 2 64 96 312 (3833856)
I1213 10:40:07.768848 10744 net.cpp:159] Memory required for data: 208019840
I1213 10:40:07.768854 10744 layer_factory.hpp:77] Creating layer conv2/3x3
I1213 10:40:07.768872 10744 net.cpp:94] Creating Layer conv2/3x3
I1213 10:40:07.768879 10744 net.cpp:435] conv2/3x3 <- conv2/3x3_reduce
I1213 10:40:07.768893 10744 net.cpp:409] conv2/3x3 -> conv2/3x3
I1213 10:40:07.769990 10744 net.cpp:144] Setting up conv2/3x3
I1213 10:40:07.770009 10744 net.cpp:151] Top shape: 2 192 96 312 (11501568)
I1213 10:40:07.770017 10744 net.cpp:159] Memory required for data: 254026112
I1213 10:40:07.770032 10744 layer_factory.hpp:77] Creating layer conv2/relu_3x3
I1213 10:40:07.770043 10744 net.cpp:94] Creating Layer conv2/relu_3x3
I1213 10:40:07.770052 10744 net.cpp:435] conv2/relu_3x3 <- conv2/3x3
I1213 10:40:07.770063 10744 net.cpp:396] conv2/relu_3x3 -> conv2/3x3 (in-place)
I1213 10:40:07.770076 10744 net.cpp:144] Setting up conv2/relu_3x3
I1213 10:40:07.770087 10744 net.cpp:151] Top shape: 2 192 96 312 (11501568)
I1213 10:40:07.770093 10744 net.cpp:159] Memory required for data: 300032384
I1213 10:40:07.770100 10744 layer_factory.hpp:77] Creating layer conv2/norm2
I1213 10:40:07.770112 10744 net.cpp:94] Creating Layer conv2/norm2
I1213 10:40:07.770119 10744 net.cpp:435] conv2/norm2 <- conv2/3x3
I1213 10:40:07.770130 10744 net.cpp:409] conv2/norm2 -> conv2/norm2
I1213 10:40:07.770186 10744 net.cpp:144] Setting up conv2/norm2
I1213 10:40:07.770200 10744 net.cpp:151] Top shape: 2 192 96 312 (11501568)
I1213 10:40:07.770207 10744 net.cpp:159] Memory required for data: 346038656
I1213 10:40:07.770215 10744 layer_factory.hpp:77] Creating layer pool2/3x3_s2
I1213 10:40:07.770227 10744 net.cpp:94] Creating Layer pool2/3x3_s2
I1213 10:40:07.770234 10744 net.cpp:435] pool2/3x3_s2 <- conv2/norm2
I1213 10:40:07.770246 10744 net.cpp:409] pool2/3x3_s2 -> pool2/3x3_s2
I1213 10:40:07.770298 10744 net.cpp:144] Setting up pool2/3x3_s2
I1213 10:40:07.770310 10744 net.cpp:151] Top shape: 2 192 48 156 (2875392)
I1213 10:40:07.770318 10744 net.cpp:159] Memory required for data: 357540224
I1213 10:40:07.770324 10744 layer_factory.hpp:77] Creating layer pool2/3x3_s2_pool2/3x3_s2_0_split
I1213 10:40:07.770335 10744 net.cpp:94] Creating Layer pool2/3x3_s2_pool2/3x3_s2_0_split
I1213 10:40:07.770344 10744 net.cpp:435] pool2/3x3_s2_pool2/3x3_s2_0_split <- pool2/3x3_s2
I1213 10:40:07.770354 10744 net.cpp:409] pool2/3x3_s2_pool2/3x3_s2_0_split -> pool2/3x3_s2_pool2/3x3_s2_0_split_0
I1213 10:40:07.770368 10744 net.cpp:409] pool2/3x3_s2_pool2/3x3_s2_0_split -> pool2/3x3_s2_pool2/3x3_s2_0_split_1
I1213 10:40:07.770381 10744 net.cpp:409] pool2/3x3_s2_pool2/3x3_s2_0_split -> pool2/3x3_s2_pool2/3x3_s2_0_split_2
I1213 10:40:07.770392 10744 net.cpp:409] pool2/3x3_s2_pool2/3x3_s2_0_split -> pool2/3x3_s2_pool2/3x3_s2_0_split_3
I1213 10:40:07.770489 10744 net.cpp:144] Setting up pool2/3x3_s2_pool2/3x3_s2_0_split
I1213 10:40:07.770503 10744 net.cpp:151] Top shape: 2 192 48 156 (2875392)
I1213 10:40:07.770511 10744 net.cpp:151] Top shape: 2 192 48 156 (2875392)
I1213 10:40:07.770542 10744 net.cpp:151] Top shape: 2 192 48 156 (2875392)
I1213 10:40:07.770552 10744 net.cpp:151] Top shape: 2 192 48 156 (2875392)
I1213 10:40:07.770560 10744 net.cpp:159] Memory required for data: 403546496
I1213 10:40:07.770566 10744 layer_factory.hpp:77] Creating layer inception_3a/1x1
I1213 10:40:07.770583 10744 net.cpp:94] Creating Layer inception_3a/1x1
I1213 10:40:07.770592 10744 net.cpp:435] inception_3a/1x1 <- pool2/3x3_s2_pool2/3x3_s2_0_split_0
I1213 10:40:07.770606 10744 net.cpp:409] inception_3a/1x1 -> inception_3a/1x1
I1213 10:40:07.771015 10744 net.cpp:144] Setting up inception_3a/1x1
I1213 10:40:07.771033 10744 net.cpp:151] Top shape: 2 64 48 156 (958464)
I1213 10:40:07.771039 10744 net.cpp:159] Memory required for data: 407380352
I1213 10:40:07.771051 10744 layer_factory.hpp:77] Creating layer inception_3a/relu_1x1
I1213 10:40:07.771062 10744 net.cpp:94] Creating Layer inception_3a/relu_1x1
I1213 10:40:07.771070 10744 net.cpp:435] inception_3a/relu_1x1 <- inception_3a/1x1
I1213 10:40:07.771081 10744 net.cpp:396] inception_3a/relu_1x1 -> inception_3a/1x1 (in-place)
I1213 10:40:07.771095 10744 net.cpp:144] Setting up inception_3a/relu_1x1
I1213 10:40:07.771106 10744 net.cpp:151] Top shape: 2 64 48 156 (958464)
I1213 10:40:07.771112 10744 net.cpp:159] Memory required for data: 411214208
I1213 10:40:07.771119 10744 layer_factory.hpp:77] Creating layer inception_3a/3x3_reduce
I1213 10:40:07.771133 10744 net.cpp:94] Creating Layer inception_3a/3x3_reduce
I1213 10:40:07.771142 10744 net.cpp:435] inception_3a/3x3_reduce <- pool2/3x3_s2_pool2/3x3_s2_0_split_1
I1213 10:40:07.771153 10744 net.cpp:409] inception_3a/3x3_reduce -> inception_3a/3x3_reduce
I1213 10:40:07.771600 10744 net.cpp:144] Setting up inception_3a/3x3_reduce
I1213 10:40:07.771616 10744 net.cpp:151] Top shape: 2 96 48 156 (1437696)
I1213 10:40:07.771625 10744 net.cpp:159] Memory required for data: 416964992
I1213 10:40:07.771639 10744 layer_factory.hpp:77] Creating layer inception_3a/relu_3x3_reduce
I1213 10:40:07.771651 10744 net.cpp:94] Creating Layer inception_3a/relu_3x3_reduce
I1213 10:40:07.771661 10744 net.cpp:435] inception_3a/relu_3x3_reduce <- inception_3a/3x3_reduce
I1213 10:40:07.771670 10744 net.cpp:396] inception_3a/relu_3x3_reduce -> inception_3a/3x3_reduce (in-place)
I1213 10:40:07.771684 10744 net.cpp:144] Setting up inception_3a/relu_3x3_reduce
I1213 10:40:07.771694 10744 net.cpp:151] Top shape: 2 96 48 156 (1437696)
I1213 10:40:07.771700 10744 net.cpp:159] Memory required for data: 422715776
I1213 10:40:07.771708 10744 layer_factory.hpp:77] Creating layer inception_3a/3x3
I1213 10:40:07.771723 10744 net.cpp:94] Creating Layer inception_3a/3x3
I1213 10:40:07.771731 10744 net.cpp:435] inception_3a/3x3 <- inception_3a/3x3_reduce
I1213 10:40:07.771744 10744 net.cpp:409] inception_3a/3x3 -> inception_3a/3x3
I1213 10:40:07.772833 10744 net.cpp:144] Setting up inception_3a/3x3
I1213 10:40:07.772851 10744 net.cpp:151] Top shape: 2 128 48 156 (1916928)
I1213 10:40:07.772858 10744 net.cpp:159] Memory required for data: 430383488
I1213 10:40:07.772871 10744 layer_factory.hpp:77] Creating layer inception_3a/relu_3x3
I1213 10:40:07.772881 10744 net.cpp:94] Creating Layer inception_3a/relu_3x3
I1213 10:40:07.772889 10744 net.cpp:435] inception_3a/relu_3x3 <- inception_3a/3x3
I1213 10:40:07.772899 10744 net.cpp:396] inception_3a/relu_3x3 -> inception_3a/3x3 (in-place)
I1213 10:40:07.772914 10744 net.cpp:144] Setting up inception_3a/relu_3x3
I1213 10:40:07.772924 10744 net.cpp:151] Top shape: 2 128 48 156 (1916928)
I1213 10:40:07.772931 10744 net.cpp:159] Memory required for data: 438051200
I1213 10:40:07.772938 10744 layer_factory.hpp:77] Creating layer inception_3a/5x5_reduce
I1213 10:40:07.772953 10744 net.cpp:94] Creating Layer inception_3a/5x5_reduce
I1213 10:40:07.772961 10744 net.cpp:435] inception_3a/5x5_reduce <- pool2/3x3_s2_pool2/3x3_s2_0_split_2
I1213 10:40:07.772974 10744 net.cpp:409] inception_3a/5x5_reduce -> inception_3a/5x5_reduce
I1213 10:40:07.773306 10744 net.cpp:144] Setting up inception_3a/5x5_reduce
I1213 10:40:07.773337 10744 net.cpp:151] Top shape: 2 16 48 156 (239616)
I1213 10:40:07.773345 10744 net.cpp:159] Memory required for data: 439009664
I1213 10:40:07.773357 10744 layer_factory.hpp:77] Creating layer inception_3a/relu_5x5_reduce
I1213 10:40:07.773372 10744 net.cpp:94] Creating Layer inception_3a/relu_5x5_reduce
I1213 10:40:07.773380 10744 net.cpp:435] inception_3a/relu_5x5_reduce <- inception_3a/5x5_reduce
I1213 10:40:07.773391 10744 net.cpp:396] inception_3a/relu_5x5_reduce -> inception_3a/5x5_reduce (in-place)
I1213 10:40:07.773406 10744 net.cpp:144] Setting up inception_3a/relu_5x5_reduce
I1213 10:40:07.773416 10744 net.cpp:151] Top shape: 2 16 48 156 (239616)
I1213 10:40:07.773422 10744 net.cpp:159] Memory required for data: 439968128
I1213 10:40:07.773429 10744 layer_factory.hpp:77] Creating layer inception_3a/5x5
I1213 10:40:07.773445 10744 net.cpp:94] Creating Layer inception_3a/5x5
I1213 10:40:07.773452 10744 net.cpp:435] inception_3a/5x5 <- inception_3a/5x5_reduce
I1213 10:40:07.773464 10744 net.cpp:409] inception_3a/5x5 -> inception_3a/5x5
I1213 10:40:07.773870 10744 net.cpp:144] Setting up inception_3a/5x5
I1213 10:40:07.773887 10744 net.cpp:151] Top shape: 2 32 48 156 (479232)
I1213 10:40:07.773895 10744 net.cpp:159] Memory required for data: 441885056
I1213 10:40:07.773905 10744 layer_factory.hpp:77] Creating layer inception_3a/relu_5x5
I1213 10:40:07.773917 10744 net.cpp:94] Creating Layer inception_3a/relu_5x5
I1213 10:40:07.773926 10744 net.cpp:435] inception_3a/relu_5x5 <- inception_3a/5x5
I1213 10:40:07.773936 10744 net.cpp:396] inception_3a/relu_5x5 -> inception_3a/5x5 (in-place)
I1213 10:40:07.773949 10744 net.cpp:144] Setting up inception_3a/relu_5x5
I1213 10:40:07.773958 10744 net.cpp:151] Top shape: 2 32 48 156 (479232)
I1213 10:40:07.773967 10744 net.cpp:159] Memory required for data: 443801984
I1213 10:40:07.773973 10744 layer_factory.hpp:77] Creating layer inception_3a/pool
I1213 10:40:07.773984 10744 net.cpp:94] Creating Layer inception_3a/pool
I1213 10:40:07.773993 10744 net.cpp:435] inception_3a/pool <- pool2/3x3_s2_pool2/3x3_s2_0_split_3
I1213 10:40:07.774003 10744 net.cpp:409] inception_3a/pool -> inception_3a/pool
I1213 10:40:07.774060 10744 net.cpp:144] Setting up inception_3a/pool
I1213 10:40:07.774073 10744 net.cpp:151] Top shape: 2 192 48 156 (2875392)
I1213 10:40:07.774080 10744 net.cpp:159] Memory required for data: 455303552
I1213 10:40:07.774088 10744 layer_factory.hpp:77] Creating layer inception_3a/pool_proj
I1213 10:40:07.774104 10744 net.cpp:94] Creating Layer inception_3a/pool_proj
I1213 10:40:07.774112 10744 net.cpp:435] inception_3a/pool_proj <- inception_3a/pool
I1213 10:40:07.774124 10744 net.cpp:409] inception_3a/pool_proj -> inception_3a/pool_proj
I1213 10:40:07.774490 10744 net.cpp:144] Setting up inception_3a/pool_proj
I1213 10:40:07.774508 10744 net.cpp:151] Top shape: 2 32 48 156 (479232)
I1213 10:40:07.774515 10744 net.cpp:159] Memory required for data: 457220480
I1213 10:40:07.774533 10744 layer_factory.hpp:77] Creating layer inception_3a/relu_pool_proj
I1213 10:40:07.774544 10744 net.cpp:94] Creating Layer inception_3a/relu_pool_proj
I1213 10:40:07.774554 10744 net.cpp:435] inception_3a/relu_pool_proj <- inception_3a/pool_proj
I1213 10:40:07.774564 10744 net.cpp:396] inception_3a/relu_pool_proj -> inception_3a/pool_proj (in-place)
I1213 10:40:07.774579 10744 net.cpp:144] Setting up inception_3a/relu_pool_proj
I1213 10:40:07.774588 10744 net.cpp:151] Top shape: 2 32 48 156 (479232)
I1213 10:40:07.774595 10744 net.cpp:159] Memory required for data: 459137408
I1213 10:40:07.774602 10744 layer_factory.hpp:77] Creating layer inception_3a/output
I1213 10:40:07.774612 10744 net.cpp:94] Creating Layer inception_3a/output
I1213 10:40:07.774621 10744 net.cpp:435] inception_3a/output <- inception_3a/1x1
I1213 10:40:07.774629 10744 net.cpp:435] inception_3a/output <- inception_3a/3x3
I1213 10:40:07.774637 10744 net.cpp:435] inception_3a/output <- inception_3a/5x5
I1213 10:40:07.774646 10744 net.cpp:435] inception_3a/output <- inception_3a/pool_proj
I1213 10:40:07.774672 10744 net.cpp:409] inception_3a/output -> inception_3a/output
I1213 10:40:07.774714 10744 net.cpp:144] Setting up inception_3a/output
I1213 10:40:07.774729 10744 net.cpp:151] Top shape: 2 256 48 156 (3833856)
I1213 10:40:07.774735 10744 net.cpp:159] Memory required for data: 474472832
I1213 10:40:07.774744 10744 layer_factory.hpp:77] Creating layer inception_3a/output_inception_3a/output_0_split
I1213 10:40:07.774755 10744 net.cpp:94] Creating Layer inception_3a/output_inception_3a/output_0_split
I1213 10:40:07.774762 10744 net.cpp:435] inception_3a/output_inception_3a/output_0_split <- inception_3a/output
I1213 10:40:07.774775 10744 net.cpp:409] inception_3a/output_inception_3a/output_0_split -> inception_3a/output_inception_3a/output_0_split_0
I1213 10:40:07.774786 10744 net.cpp:409] inception_3a/output_inception_3a/output_0_split -> inception_3a/output_inception_3a/output_0_split_1
I1213 10:40:07.774799 10744 net.cpp:409] inception_3a/output_inception_3a/output_0_split -> inception_3a/output_inception_3a/output_0_split_2
I1213 10:40:07.774811 10744 net.cpp:409] inception_3a/output_inception_3a/output_0_split -> inception_3a/output_inception_3a/output_0_split_3
I1213 10:40:07.774888 10744 net.cpp:144] Setting up inception_3a/output_inception_3a/output_0_split
I1213 10:40:07.774900 10744 net.cpp:151] Top shape: 2 256 48 156 (3833856)
I1213 10:40:07.774909 10744 net.cpp:151] Top shape: 2 256 48 156 (3833856)
I1213 10:40:07.774917 10744 net.cpp:151] Top shape: 2 256 48 156 (3833856)
I1213 10:40:07.774926 10744 net.cpp:151] Top shape: 2 256 48 156 (3833856)
I1213 10:40:07.774932 10744 net.cpp:159] Memory required for data: 535814528
I1213 10:40:07.774940 10744 layer_factory.hpp:77] Creating layer inception_3b/1x1
I1213 10:40:07.774956 10744 net.cpp:94] Creating Layer inception_3b/1x1
I1213 10:40:07.774965 10744 net.cpp:435] inception_3b/1x1 <- inception_3a/output_inception_3a/output_0_split_0
I1213 10:40:07.774977 10744 net.cpp:409] inception_3b/1x1 -> inception_3b/1x1
I1213 10:40:07.775527 10744 net.cpp:144] Setting up inception_3b/1x1
I1213 10:40:07.775544 10744 net.cpp:151] Top shape: 2 128 48 156 (1916928)
I1213 10:40:07.775552 10744 net.cpp:159] Memory required for data: 543482240
I1213 10:40:07.775563 10744 layer_factory.hpp:77] Creating layer inception_3b/relu_1x1
I1213 10:40:07.775574 10744 net.cpp:94] Creating Layer inception_3b/relu_1x1
I1213 10:40:07.775583 10744 net.cpp:435] inception_3b/relu_1x1 <- inception_3b/1x1
I1213 10:40:07.775593 10744 net.cpp:396] inception_3b/relu_1x1 -> inception_3b/1x1 (in-place)
I1213 10:40:07.775605 10744 net.cpp:144] Setting up inception_3b/relu_1x1
I1213 10:40:07.775615 10744 net.cpp:151] Top shape: 2 128 48 156 (1916928)
I1213 10:40:07.775622 10744 net.cpp:159] Memory required for data: 551149952
I1213 10:40:07.775629 10744 layer_factory.hpp:77] Creating layer inception_3b/3x3_reduce
I1213 10:40:07.775645 10744 net.cpp:94] Creating Layer inception_3b/3x3_reduce
I1213 10:40:07.775652 10744 net.cpp:435] inception_3b/3x3_reduce <- inception_3a/output_inception_3a/output_0_split_1
I1213 10:40:07.775665 10744 net.cpp:409] inception_3b/3x3_reduce -> inception_3b/3x3_reduce
I1213 10:40:07.776196 10744 net.cpp:144] Setting up inception_3b/3x3_reduce
I1213 10:40:07.776214 10744 net.cpp:151] Top shape: 2 128 48 156 (1916928)
I1213 10:40:07.776226 10744 net.cpp:159] Memory required for data: 558817664
I1213 10:40:07.776237 10744 layer_factory.hpp:77] Creating layer inception_3b/relu_3x3_reduce
I1213 10:40:07.776249 10744 net.cpp:94] Creating Layer inception_3b/relu_3x3_reduce
I1213 10:40:07.776257 10744 net.cpp:435] inception_3b/relu_3x3_reduce <- inception_3b/3x3_reduce
I1213 10:40:07.776268 10744 net.cpp:396] inception_3b/relu_3x3_reduce -> inception_3b/3x3_reduce (in-place)
I1213 10:40:07.776280 10744 net.cpp:144] Setting up inception_3b/relu_3x3_reduce
I1213 10:40:07.776290 10744 net.cpp:151] Top shape: 2 128 48 156 (1916928)
I1213 10:40:07.776298 10744 net.cpp:159] Memory required for data: 566485376
I1213 10:40:07.776304 10744 layer_factory.hpp:77] Creating layer inception_3b/3x3
I1213 10:40:07.776335 10744 net.cpp:94] Creating Layer inception_3b/3x3
I1213 10:40:07.776345 10744 net.cpp:435] inception_3b/3x3 <- inception_3b/3x3_reduce
I1213 10:40:07.776357 10744 net.cpp:409] inception_3b/3x3 -> inception_3b/3x3
I1213 10:40:07.779603 10744 net.cpp:144] Setting up inception_3b/3x3
I1213 10:40:07.779626 10744 net.cpp:151] Top shape: 2 192 48 156 (2875392)
I1213 10:40:07.779634 10744 net.cpp:159] Memory required for data: 577986944
I1213 10:40:07.779646 10744 layer_factory.hpp:77] Creating layer inception_3b/relu_3x3
I1213 10:40:07.779659 10744 net.cpp:94] Creating Layer inception_3b/relu_3x3
I1213 10:40:07.779667 10744 net.cpp:435] inception_3b/relu_3x3 <- inception_3b/3x3
I1213 10:40:07.779678 10744 net.cpp:396] inception_3b/relu_3x3 -> inception_3b/3x3 (in-place)
I1213 10:40:07.779693 10744 net.cpp:144] Setting up inception_3b/relu_3x3
I1213 10:40:07.779705 10744 net.cpp:151] Top shape: 2 192 48 156 (2875392)
I1213 10:40:07.779711 10744 net.cpp:159] Memory required for data: 589488512
I1213 10:40:07.779718 10744 layer_factory.hpp:77] Creating layer inception_3b/5x5_reduce
I1213 10:40:07.779733 10744 net.cpp:94] Creating Layer inception_3b/5x5_reduce
I1213 10:40:07.779742 10744 net.cpp:435] inception_3b/5x5_reduce <- inception_3a/output_inception_3a/output_0_split_2
I1213 10:40:07.779755 10744 net.cpp:409] inception_3b/5x5_reduce -> inception_3b/5x5_reduce
I1213 10:40:07.780196 10744 net.cpp:144] Setting up inception_3b/5x5_reduce
I1213 10:40:07.780215 10744 net.cpp:151] Top shape: 2 32 48 156 (479232)
I1213 10:40:07.780222 10744 net.cpp:159] Memory required for data: 591405440
I1213 10:40:07.780235 10744 layer_factory.hpp:77] Creating layer inception_3b/relu_5x5_reduce
I1213 10:40:07.780246 10744 net.cpp:94] Creating Layer inception_3b/relu_5x5_reduce
I1213 10:40:07.780254 10744 net.cpp:435] inception_3b/relu_5x5_reduce <- inception_3b/5x5_reduce
I1213 10:40:07.780266 10744 net.cpp:396] inception_3b/relu_5x5_reduce -> inception_3b/5x5_reduce (in-place)
I1213 10:40:07.780279 10744 net.cpp:144] Setting up inception_3b/relu_5x5_reduce
I1213 10:40:07.780289 10744 net.cpp:151] Top shape: 2 32 48 156 (479232)
I1213 10:40:07.780297 10744 net.cpp:159] Memory required for data: 593322368
I1213 10:40:07.780304 10744 layer_factory.hpp:77] Creating layer inception_3b/5x5
I1213 10:40:07.780320 10744 net.cpp:94] Creating Layer inception_3b/5x5
I1213 10:40:07.780328 10744 net.cpp:435] inception_3b/5x5 <- inception_3b/5x5_reduce
I1213 10:40:07.780341 10744 net.cpp:409] inception_3b/5x5 -> inception_3b/5x5
I1213 10:40:07.781188 10744 net.cpp:144] Setting up inception_3b/5x5
I1213 10:40:07.781206 10744 net.cpp:151] Top shape: 2 96 48 156 (1437696)
I1213 10:40:07.781213 10744 net.cpp:159] Memory required for data: 599073152
I1213 10:40:07.781225 10744 layer_factory.hpp:77] Creating layer inception_3b/relu_5x5
I1213 10:40:07.781236 10744 net.cpp:94] Creating Layer inception_3b/relu_5x5
I1213 10:40:07.781245 10744 net.cpp:435] inception_3b/relu_5x5 <- inception_3b/5x5
I1213 10:40:07.781255 10744 net.cpp:396] inception_3b/relu_5x5 -> inception_3b/5x5 (in-place)
I1213 10:40:07.781268 10744 net.cpp:144] Setting up inception_3b/relu_5x5
I1213 10:40:07.781278 10744 net.cpp:151] Top shape: 2 96 48 156 (1437696)
I1213 10:40:07.781286 10744 net.cpp:159] Memory required for data: 604823936
I1213 10:40:07.781292 10744 layer_factory.hpp:77] Creating layer inception_3b/pool
I1213 10:40:07.781303 10744 net.cpp:94] Creating Layer inception_3b/pool
I1213 10:40:07.781311 10744 net.cpp:435] inception_3b/pool <- inception_3a/output_inception_3a/output_0_split_3
I1213 10:40:07.781322 10744 net.cpp:409] inception_3b/pool -> inception_3b/pool
I1213 10:40:07.781379 10744 net.cpp:144] Setting up inception_3b/pool
I1213 10:40:07.781394 10744 net.cpp:151] Top shape: 2 256 48 156 (3833856)
I1213 10:40:07.781400 10744 net.cpp:159] Memory required for data: 620159360
I1213 10:40:07.781407 10744 layer_factory.hpp:77] Creating layer inception_3b/pool_proj
I1213 10:40:07.781422 10744 net.cpp:94] Creating Layer inception_3b/pool_proj
I1213 10:40:07.781448 10744 net.cpp:435] inception_3b/pool_proj <- inception_3b/pool
I1213 10:40:07.781462 10744 net.cpp:409] inception_3b/pool_proj -> inception_3b/pool_proj
I1213 10:40:07.781900 10744 net.cpp:144] Setting up inception_3b/pool_proj
I1213 10:40:07.781918 10744 net.cpp:151] Top shape: 2 64 48 156 (958464)
I1213 10:40:07.781924 10744 net.cpp:159] Memory required for data: 623993216
I1213 10:40:07.781936 10744 layer_factory.hpp:77] Creating layer inception_3b/relu_pool_proj
I1213 10:40:07.781949 10744 net.cpp:94] Creating Layer inception_3b/relu_pool_proj
I1213 10:40:07.781956 10744 net.cpp:435] inception_3b/relu_pool_proj <- inception_3b/pool_proj
I1213 10:40:07.781967 10744 net.cpp:396] inception_3b/relu_pool_proj -> inception_3b/pool_proj (in-place)
I1213 10:40:07.781980 10744 net.cpp:144] Setting up inception_3b/relu_pool_proj
I1213 10:40:07.781991 10744 net.cpp:151] Top shape: 2 64 48 156 (958464)
I1213 10:40:07.781997 10744 net.cpp:159] Memory required for data: 627827072
I1213 10:40:07.782003 10744 layer_factory.hpp:77] Creating layer inception_3b/output
I1213 10:40:07.782014 10744 net.cpp:94] Creating Layer inception_3b/output
I1213 10:40:07.782021 10744 net.cpp:435] inception_3b/output <- inception_3b/1x1
I1213 10:40:07.782030 10744 net.cpp:435] inception_3b/output <- inception_3b/3x3
I1213 10:40:07.782039 10744 net.cpp:435] inception_3b/output <- inception_3b/5x5
I1213 10:40:07.782047 10744 net.cpp:435] inception_3b/output <- inception_3b/pool_proj
I1213 10:40:07.782058 10744 net.cpp:409] inception_3b/output -> inception_3b/output
I1213 10:40:07.782095 10744 net.cpp:144] Setting up inception_3b/output
I1213 10:40:07.782109 10744 net.cpp:151] Top shape: 2 480 48 156 (7188480)
I1213 10:40:07.782116 10744 net.cpp:159] Memory required for data: 656580992
I1213 10:40:07.782124 10744 layer_factory.hpp:77] Creating layer pool3/3x3_s2
I1213 10:40:07.782135 10744 net.cpp:94] Creating Layer pool3/3x3_s2
I1213 10:40:07.782143 10744 net.cpp:435] pool3/3x3_s2 <- inception_3b/output
I1213 10:40:07.782155 10744 net.cpp:409] pool3/3x3_s2 -> pool3/3x3_s2
I1213 10:40:07.782207 10744 net.cpp:144] Setting up pool3/3x3_s2
I1213 10:40:07.782220 10744 net.cpp:151] Top shape: 2 480 24 78 (1797120)
I1213 10:40:07.782227 10744 net.cpp:159] Memory required for data: 663769472
I1213 10:40:07.782234 10744 layer_factory.hpp:77] Creating layer pool3/3x3_s2_pool3/3x3_s2_0_split
I1213 10:40:07.782245 10744 net.cpp:94] Creating Layer pool3/3x3_s2_pool3/3x3_s2_0_split
I1213 10:40:07.782253 10744 net.cpp:435] pool3/3x3_s2_pool3/3x3_s2_0_split <- pool3/3x3_s2
I1213 10:40:07.782264 10744 net.cpp:409] pool3/3x3_s2_pool3/3x3_s2_0_split -> pool3/3x3_s2_pool3/3x3_s2_0_split_0
I1213 10:40:07.782277 10744 net.cpp:409] pool3/3x3_s2_pool3/3x3_s2_0_split -> pool3/3x3_s2_pool3/3x3_s2_0_split_1
I1213 10:40:07.782290 10744 net.cpp:409] pool3/3x3_s2_pool3/3x3_s2_0_split -> pool3/3x3_s2_pool3/3x3_s2_0_split_2
I1213 10:40:07.782302 10744 net.cpp:409] pool3/3x3_s2_pool3/3x3_s2_0_split -> pool3/3x3_s2_pool3/3x3_s2_0_split_3
I1213 10:40:07.782379 10744 net.cpp:144] Setting up pool3/3x3_s2_pool3/3x3_s2_0_split
I1213 10:40:07.782393 10744 net.cpp:151] Top shape: 2 480 24 78 (1797120)
I1213 10:40:07.782413 10744 net.cpp:151] Top shape: 2 480 24 78 (1797120)
I1213 10:40:07.782423 10744 net.cpp:151] Top shape: 2 480 24 78 (1797120)
I1213 10:40:07.782441 10744 net.cpp:151] Top shape: 2 480 24 78 (1797120)
I1213 10:40:07.782447 10744 net.cpp:159] Memory required for data: 692523392
I1213 10:40:07.782455 10744 layer_factory.hpp:77] Creating layer inception_4a/1x1
I1213 10:40:07.782471 10744 net.cpp:94] Creating Layer inception_4a/1x1
I1213 10:40:07.782480 10744 net.cpp:435] inception_4a/1x1 <- pool3/3x3_s2_pool3/3x3_s2_0_split_0
I1213 10:40:07.782493 10744 net.cpp:409] inception_4a/1x1 -> inception_4a/1x1
I1213 10:40:07.783442 10744 net.cpp:144] Setting up inception_4a/1x1
I1213 10:40:07.783459 10744 net.cpp:151] Top shape: 2 192 24 78 (718848)
I1213 10:40:07.783466 10744 net.cpp:159] Memory required for data: 695398784
I1213 10:40:07.783494 10744 layer_factory.hpp:77] Creating layer inception_4a/relu_1x1
I1213 10:40:07.783506 10744 net.cpp:94] Creating Layer inception_4a/relu_1x1
I1213 10:40:07.783515 10744 net.cpp:435] inception_4a/relu_1x1 <- inception_4a/1x1
I1213 10:40:07.783525 10744 net.cpp:396] inception_4a/relu_1x1 -> inception_4a/1x1 (in-place)
I1213 10:40:07.783540 10744 net.cpp:144] Setting up inception_4a/relu_1x1
I1213 10:40:07.783550 10744 net.cpp:151] Top shape: 2 192 24 78 (718848)
I1213 10:40:07.783556 10744 net.cpp:159] Memory required for data: 698274176
I1213 10:40:07.783563 10744 layer_factory.hpp:77] Creating layer inception_4a/3x3_reduce
I1213 10:40:07.783577 10744 net.cpp:94] Creating Layer inception_4a/3x3_reduce
I1213 10:40:07.783586 10744 net.cpp:435] inception_4a/3x3_reduce <- pool3/3x3_s2_pool3/3x3_s2_0_split_1
I1213 10:40:07.783598 10744 net.cpp:409] inception_4a/3x3_reduce -> inception_4a/3x3_reduce
I1213 10:40:07.784242 10744 net.cpp:144] Setting up inception_4a/3x3_reduce
I1213 10:40:07.784260 10744 net.cpp:151] Top shape: 2 96 24 78 (359424)
I1213 10:40:07.784267 10744 net.cpp:159] Memory required for data: 699711872
I1213 10:40:07.784287 10744 layer_factory.hpp:77] Creating layer inception_4a/relu_3x3_reduce
I1213 10:40:07.784299 10744 net.cpp:94] Creating Layer inception_4a/relu_3x3_reduce
I1213 10:40:07.784307 10744 net.cpp:435] inception_4a/relu_3x3_reduce <- inception_4a/3x3_reduce
I1213 10:40:07.784318 10744 net.cpp:396] inception_4a/relu_3x3_reduce -> inception_4a/3x3_reduce (in-place)
I1213 10:40:07.784332 10744 net.cpp:144] Setting up inception_4a/relu_3x3_reduce
I1213 10:40:07.784342 10744 net.cpp:151] Top shape: 2 96 24 78 (359424)
I1213 10:40:07.784348 10744 net.cpp:159] Memory required for data: 701149568
I1213 10:40:07.784355 10744 layer_factory.hpp:77] Creating layer inception_4a/3x3
I1213 10:40:07.784371 10744 net.cpp:94] Creating Layer inception_4a/3x3
I1213 10:40:07.784379 10744 net.cpp:435] inception_4a/3x3 <- inception_4a/3x3_reduce
I1213 10:40:07.784390 10744 net.cpp:409] inception_4a/3x3 -> inception_4a/3x3
I1213 10:40:07.785959 10744 net.cpp:144] Setting up inception_4a/3x3
I1213 10:40:07.785977 10744 net.cpp:151] Top shape: 2 208 24 78 (778752)
I1213 10:40:07.785984 10744 net.cpp:159] Memory required for data: 704264576
I1213 10:40:07.785995 10744 layer_factory.hpp:77] Creating layer inception_4a/relu_3x3
I1213 10:40:07.786007 10744 net.cpp:94] Creating Layer inception_4a/relu_3x3
I1213 10:40:07.786015 10744 net.cpp:435] inception_4a/relu_3x3 <- inception_4a/3x3
I1213 10:40:07.786026 10744 net.cpp:396] inception_4a/relu_3x3 -> inception_4a/3x3 (in-place)
I1213 10:40:07.786039 10744 net.cpp:144] Setting up inception_4a/relu_3x3
I1213 10:40:07.786048 10744 net.cpp:151] Top shape: 2 208 24 78 (778752)
I1213 10:40:07.786056 10744 net.cpp:159] Memory required for data: 707379584
I1213 10:40:07.786062 10744 layer_factory.hpp:77] Creating layer inception_4a/5x5_reduce
I1213 10:40:07.786077 10744 net.cpp:94] Creating Layer inception_4a/5x5_reduce
I1213 10:40:07.786087 10744 net.cpp:435] inception_4a/5x5_reduce <- pool3/3x3_s2_pool3/3x3_s2_0_split_2
I1213 10:40:07.786098 10744 net.cpp:409] inception_4a/5x5_reduce -> inception_4a/5x5_reduce
I1213 10:40:07.786490 10744 net.cpp:144] Setting up inception_4a/5x5_reduce
I1213 10:40:07.786510 10744 net.cpp:151] Top shape: 2 16 24 78 (59904)
I1213 10:40:07.786517 10744 net.cpp:159] Memory required for data: 707619200
I1213 10:40:07.786530 10744 layer_factory.hpp:77] Creating layer inception_4a/relu_5x5_reduce
I1213 10:40:07.786540 10744 net.cpp:94] Creating Layer inception_4a/relu_5x5_reduce
I1213 10:40:07.786548 10744 net.cpp:435] inception_4a/relu_5x5_reduce <- inception_4a/5x5_reduce
I1213 10:40:07.786559 10744 net.cpp:396] inception_4a/relu_5x5_reduce -> inception_4a/5x5_reduce (in-place)
I1213 10:40:07.786573 10744 net.cpp:144] Setting up inception_4a/relu_5x5_reduce
I1213 10:40:07.786582 10744 net.cpp:151] Top shape: 2 16 24 78 (59904)
I1213 10:40:07.786589 10744 net.cpp:159] Memory required for data: 707858816
I1213 10:40:07.786597 10744 layer_factory.hpp:77] Creating layer inception_4a/5x5
I1213 10:40:07.786633 10744 net.cpp:94] Creating Layer inception_4a/5x5
I1213 10:40:07.786644 10744 net.cpp:435] inception_4a/5x5 <- inception_4a/5x5_reduce
I1213 10:40:07.786656 10744 net.cpp:409] inception_4a/5x5 -> inception_4a/5x5
I1213 10:40:07.787111 10744 net.cpp:144] Setting up inception_4a/5x5
I1213 10:40:07.787128 10744 net.cpp:151] Top shape: 2 48 24 78 (179712)
I1213 10:40:07.787135 10744 net.cpp:159] Memory required for data: 708577664
I1213 10:40:07.787148 10744 layer_factory.hpp:77] Creating layer inception_4a/relu_5x5
I1213 10:40:07.787159 10744 net.cpp:94] Creating Layer inception_4a/relu_5x5
I1213 10:40:07.787168 10744 net.cpp:435] inception_4a/relu_5x5 <- inception_4a/5x5
I1213 10:40:07.787178 10744 net.cpp:396] inception_4a/relu_5x5 -> inception_4a/5x5 (in-place)
I1213 10:40:07.787191 10744 net.cpp:144] Setting up inception_4a/relu_5x5
I1213 10:40:07.787200 10744 net.cpp:151] Top shape: 2 48 24 78 (179712)
I1213 10:40:07.787207 10744 net.cpp:159] Memory required for data: 709296512
I1213 10:40:07.787214 10744 layer_factory.hpp:77] Creating layer inception_4a/pool
I1213 10:40:07.787226 10744 net.cpp:94] Creating Layer inception_4a/pool
I1213 10:40:07.787233 10744 net.cpp:435] inception_4a/pool <- pool3/3x3_s2_pool3/3x3_s2_0_split_3
I1213 10:40:07.787245 10744 net.cpp:409] inception_4a/pool -> inception_4a/pool
I1213 10:40:07.787302 10744 net.cpp:144] Setting up inception_4a/pool
I1213 10:40:07.787315 10744 net.cpp:151] Top shape: 2 480 24 78 (1797120)
I1213 10:40:07.787322 10744 net.cpp:159] Memory required for data: 716484992
I1213 10:40:07.787330 10744 layer_factory.hpp:77] Creating layer inception_4a/pool_proj
I1213 10:40:07.787345 10744 net.cpp:94] Creating Layer inception_4a/pool_proj
I1213 10:40:07.787353 10744 net.cpp:435] inception_4a/pool_proj <- inception_4a/pool
I1213 10:40:07.787366 10744 net.cpp:409] inception_4a/pool_proj -> inception_4a/pool_proj
I1213 10:40:07.787888 10744 net.cpp:144] Setting up inception_4a/pool_proj
I1213 10:40:07.787904 10744 net.cpp:151] Top shape: 2 64 24 78 (239616)
I1213 10:40:07.787911 10744 net.cpp:159] Memory required for data: 717443456
I1213 10:40:07.787924 10744 layer_factory.hpp:77] Creating layer inception_4a/relu_pool_proj
I1213 10:40:07.787935 10744 net.cpp:94] Creating Layer inception_4a/relu_pool_proj
I1213 10:40:07.787942 10744 net.cpp:435] inception_4a/relu_pool_proj <- inception_4a/pool_proj
I1213 10:40:07.787953 10744 net.cpp:396] inception_4a/relu_pool_proj -> inception_4a/pool_proj (in-place)
I1213 10:40:07.787966 10744 net.cpp:144] Setting up inception_4a/relu_pool_proj
I1213 10:40:07.787976 10744 net.cpp:151] Top shape: 2 64 24 78 (239616)
I1213 10:40:07.787983 10744 net.cpp:159] Memory required for data: 718401920
I1213 10:40:07.787991 10744 layer_factory.hpp:77] Creating layer inception_4a/output
I1213 10:40:07.788002 10744 net.cpp:94] Creating Layer inception_4a/output
I1213 10:40:07.788009 10744 net.cpp:435] inception_4a/output <- inception_4a/1x1
I1213 10:40:07.788018 10744 net.cpp:435] inception_4a/output <- inception_4a/3x3
I1213 10:40:07.788027 10744 net.cpp:435] inception_4a/output <- inception_4a/5x5
I1213 10:40:07.788035 10744 net.cpp:435] inception_4a/output <- inception_4a/pool_proj
I1213 10:40:07.788045 10744 net.cpp:409] inception_4a/output -> inception_4a/output
I1213 10:40:07.788084 10744 net.cpp:144] Setting up inception_4a/output
I1213 10:40:07.788097 10744 net.cpp:151] Top shape: 2 512 24 78 (1916928)
I1213 10:40:07.788105 10744 net.cpp:159] Memory required for data: 726069632
I1213 10:40:07.788111 10744 layer_factory.hpp:77] Creating layer inception_4a/output_inception_4a/output_0_split
I1213 10:40:07.788123 10744 net.cpp:94] Creating Layer inception_4a/output_inception_4a/output_0_split
I1213 10:40:07.788131 10744 net.cpp:435] inception_4a/output_inception_4a/output_0_split <- inception_4a/output
I1213 10:40:07.788142 10744 net.cpp:409] inception_4a/output_inception_4a/output_0_split -> inception_4a/output_inception_4a/output_0_split_0
I1213 10:40:07.788154 10744 net.cpp:409] inception_4a/output_inception_4a/output_0_split -> inception_4a/output_inception_4a/output_0_split_1
I1213 10:40:07.788187 10744 net.cpp:409] inception_4a/output_inception_4a/output_0_split -> inception_4a/output_inception_4a/output_0_split_2
I1213 10:40:07.788200 10744 net.cpp:409] inception_4a/output_inception_4a/output_0_split -> inception_4a/output_inception_4a/output_0_split_3
I1213 10:40:07.788280 10744 net.cpp:144] Setting up inception_4a/output_inception_4a/output_0_split
I1213 10:40:07.788293 10744 net.cpp:151] Top shape: 2 512 24 78 (1916928)
I1213 10:40:07.788302 10744 net.cpp:151] Top shape: 2 512 24 78 (1916928)
I1213 10:40:07.788311 10744 net.cpp:151] Top shape: 2 512 24 78 (1916928)
I1213 10:40:07.788319 10744 net.cpp:151] Top shape: 2 512 24 78 (1916928)
I1213 10:40:07.788326 10744 net.cpp:159] Memory required for data: 756740480
I1213 10:40:07.788333 10744 layer_factory.hpp:77] Creating layer inception_4b/1x1
I1213 10:40:07.788349 10744 net.cpp:94] Creating Layer inception_4b/1x1
I1213 10:40:07.788358 10744 net.cpp:435] inception_4b/1x1 <- inception_4a/output_inception_4a/output_0_split_0
I1213 10:40:07.788372 10744 net.cpp:409] inception_4b/1x1 -> inception_4b/1x1
I1213 10:40:07.789245 10744 net.cpp:144] Setting up inception_4b/1x1
I1213 10:40:07.789263 10744 net.cpp:151] Top shape: 2 160 24 78 (599040)
I1213 10:40:07.789269 10744 net.cpp:159] Memory required for data: 759136640
I1213 10:40:07.789280 10744 layer_factory.hpp:77] Creating layer inception_4b/relu_1x1
I1213 10:40:07.789293 10744 net.cpp:94] Creating Layer inception_4b/relu_1x1
I1213 10:40:07.789300 10744 net.cpp:435] inception_4b/relu_1x1 <- inception_4b/1x1
I1213 10:40:07.789311 10744 net.cpp:396] inception_4b/relu_1x1 -> inception_4b/1x1 (in-place)
I1213 10:40:07.789324 10744 net.cpp:144] Setting up inception_4b/relu_1x1
I1213 10:40:07.789335 10744 net.cpp:151] Top shape: 2 160 24 78 (599040)
I1213 10:40:07.789341 10744 net.cpp:159] Memory required for data: 761532800
I1213 10:40:07.789348 10744 layer_factory.hpp:77] Creating layer inception_4b/3x3_reduce
I1213 10:40:07.789363 10744 net.cpp:94] Creating Layer inception_4b/3x3_reduce
I1213 10:40:07.789371 10744 net.cpp:435] inception_4b/3x3_reduce <- inception_4a/output_inception_4a/output_0_split_1
I1213 10:40:07.789383 10744 net.cpp:409] inception_4b/3x3_reduce -> inception_4b/3x3_reduce
I1213 10:40:07.790098 10744 net.cpp:144] Setting up inception_4b/3x3_reduce
I1213 10:40:07.790117 10744 net.cpp:151] Top shape: 2 112 24 78 (419328)
I1213 10:40:07.790123 10744 net.cpp:159] Memory required for data: 763210112
I1213 10:40:07.790134 10744 layer_factory.hpp:77] Creating layer inception_4b/relu_3x3_reduce
I1213 10:40:07.790145 10744 net.cpp:94] Creating Layer inception_4b/relu_3x3_reduce
I1213 10:40:07.790154 10744 net.cpp:435] inception_4b/relu_3x3_reduce <- inception_4b/3x3_reduce
I1213 10:40:07.790164 10744 net.cpp:396] inception_4b/relu_3x3_reduce -> inception_4b/3x3_reduce (in-place)
I1213 10:40:07.790179 10744 net.cpp:144] Setting up inception_4b/relu_3x3_reduce
I1213 10:40:07.790187 10744 net.cpp:151] Top shape: 2 112 24 78 (419328)
I1213 10:40:07.790194 10744 net.cpp:159] Memory required for data: 764887424
I1213 10:40:07.790204 10744 layer_factory.hpp:77] Creating layer inception_4b/3x3
I1213 10:40:07.790218 10744 net.cpp:94] Creating Layer inception_4b/3x3
I1213 10:40:07.790227 10744 net.cpp:435] inception_4b/3x3 <- inception_4b/3x3_reduce
I1213 10:40:07.790238 10744 net.cpp:409] inception_4b/3x3 -> inception_4b/3x3
I1213 10:40:07.793464 10744 net.cpp:144] Setting up inception_4b/3x3
I1213 10:40:07.793486 10744 net.cpp:151] Top shape: 2 224 24 78 (838656)
I1213 10:40:07.793494 10744 net.cpp:159] Memory required for data: 768242048
I1213 10:40:07.793506 10744 layer_factory.hpp:77] Creating layer inception_4b/relu_3x3
I1213 10:40:07.793519 10744 net.cpp:94] Creating Layer inception_4b/relu_3x3
I1213 10:40:07.793526 10744 net.cpp:435] inception_4b/relu_3x3 <- inception_4b/3x3
I1213 10:40:07.793537 10744 net.cpp:396] inception_4b/relu_3x3 -> inception_4b/3x3 (in-place)
I1213 10:40:07.793570 10744 net.cpp:144] Setting up inception_4b/relu_3x3
I1213 10:40:07.793581 10744 net.cpp:151] Top shape: 2 224 24 78 (838656)
I1213 10:40:07.793588 10744 net.cpp:159] Memory required for data: 771596672
I1213 10:40:07.793596 10744 layer_factory.hpp:77] Creating layer inception_4b/5x5_reduce
I1213 10:40:07.793612 10744 net.cpp:94] Creating Layer inception_4b/5x5_reduce
I1213 10:40:07.793622 10744 net.cpp:435] inception_4b/5x5_reduce <- inception_4a/output_inception_4a/output_0_split_2
I1213 10:40:07.793635 10744 net.cpp:409] inception_4b/5x5_reduce -> inception_4b/5x5_reduce
I1213 10:40:07.794049 10744 net.cpp:144] Setting up inception_4b/5x5_reduce
I1213 10:40:07.794066 10744 net.cpp:151] Top shape: 2 24 24 78 (89856)
I1213 10:40:07.794075 10744 net.cpp:159] Memory required for data: 771956096
I1213 10:40:07.794085 10744 layer_factory.hpp:77] Creating layer inception_4b/relu_5x5_reduce
I1213 10:40:07.794096 10744 net.cpp:94] Creating Layer inception_4b/relu_5x5_reduce
I1213 10:40:07.794106 10744 net.cpp:435] inception_4b/relu_5x5_reduce <- inception_4b/5x5_reduce
I1213 10:40:07.794116 10744 net.cpp:396] inception_4b/relu_5x5_reduce -> inception_4b/5x5_reduce (in-place)
I1213 10:40:07.794129 10744 net.cpp:144] Setting up inception_4b/relu_5x5_reduce
I1213 10:40:07.794139 10744 net.cpp:151] Top shape: 2 24 24 78 (89856)
I1213 10:40:07.794147 10744 net.cpp:159] Memory required for data: 772315520
I1213 10:40:07.794153 10744 layer_factory.hpp:77] Creating layer inception_4b/5x5
I1213 10:40:07.794168 10744 net.cpp:94] Creating Layer inception_4b/5x5
I1213 10:40:07.794176 10744 net.cpp:435] inception_4b/5x5 <- inception_4b/5x5_reduce
I1213 10:40:07.794188 10744 net.cpp:409] inception_4b/5x5 -> inception_4b/5x5
I1213 10:40:07.794847 10744 net.cpp:144] Setting up inception_4b/5x5
I1213 10:40:07.794867 10744 net.cpp:151] Top shape: 2 64 24 78 (239616)
I1213 10:40:07.794875 10744 net.cpp:159] Memory required for data: 773273984
I1213 10:40:07.794886 10744 layer_factory.hpp:77] Creating layer inception_4b/relu_5x5
I1213 10:40:07.794898 10744 net.cpp:94] Creating Layer inception_4b/relu_5x5
I1213 10:40:07.794908 10744 net.cpp:435] inception_4b/relu_5x5 <- inception_4b/5x5
I1213 10:40:07.794919 10744 net.cpp:396] inception_4b/relu_5x5 -> inception_4b/5x5 (in-place)
I1213 10:40:07.794932 10744 net.cpp:144] Setting up inception_4b/relu_5x5
I1213 10:40:07.794942 10744 net.cpp:151] Top shape: 2 64 24 78 (239616)
I1213 10:40:07.794950 10744 net.cpp:159] Memory required for data: 774232448
I1213 10:40:07.794955 10744 layer_factory.hpp:77] Creating layer inception_4b/pool
I1213 10:40:07.794966 10744 net.cpp:94] Creating Layer inception_4b/pool
I1213 10:40:07.794975 10744 net.cpp:435] inception_4b/pool <- inception_4a/output_inception_4a/output_0_split_3
I1213 10:40:07.794986 10744 net.cpp:409] inception_4b/pool -> inception_4b/pool
I1213 10:40:07.795043 10744 net.cpp:144] Setting up inception_4b/pool
I1213 10:40:07.795056 10744 net.cpp:151] Top shape: 2 512 24 78 (1916928)
I1213 10:40:07.795064 10744 net.cpp:159] Memory required for data: 781900160
I1213 10:40:07.795071 10744 layer_factory.hpp:77] Creating layer inception_4b/pool_proj
I1213 10:40:07.795089 10744 net.cpp:94] Creating Layer inception_4b/pool_proj
I1213 10:40:07.795099 10744 net.cpp:435] inception_4b/pool_proj <- inception_4b/pool
I1213 10:40:07.795111 10744 net.cpp:409] inception_4b/pool_proj -> inception_4b/pool_proj
I1213 10:40:07.795663 10744 net.cpp:144] Setting up inception_4b/pool_proj
I1213 10:40:07.795680 10744 net.cpp:151] Top shape: 2 64 24 78 (239616)
I1213 10:40:07.795688 10744 net.cpp:159] Memory required for data: 782858624
I1213 10:40:07.795699 10744 layer_factory.hpp:77] Creating layer inception_4b/relu_pool_proj
I1213 10:40:07.795711 10744 net.cpp:94] Creating Layer inception_4b/relu_pool_proj
I1213 10:40:07.795719 10744 net.cpp:435] inception_4b/relu_pool_proj <- inception_4b/pool_proj
I1213 10:40:07.795729 10744 net.cpp:396] inception_4b/relu_pool_proj -> inception_4b/pool_proj (in-place)
I1213 10:40:07.795743 10744 net.cpp:144] Setting up inception_4b/relu_pool_proj
I1213 10:40:07.795768 10744 net.cpp:151] Top shape: 2 64 24 78 (239616)
I1213 10:40:07.795778 10744 net.cpp:159] Memory required for data: 783817088
I1213 10:40:07.795784 10744 layer_factory.hpp:77] Creating layer inception_4b/output
I1213 10:40:07.795795 10744 net.cpp:94] Creating Layer inception_4b/output
I1213 10:40:07.795804 10744 net.cpp:435] inception_4b/output <- inception_4b/1x1
I1213 10:40:07.795814 10744 net.cpp:435] inception_4b/output <- inception_4b/3x3
I1213 10:40:07.795821 10744 net.cpp:435] inception_4b/output <- inception_4b/5x5
I1213 10:40:07.795830 10744 net.cpp:435] inception_4b/output <- inception_4b/pool_proj
I1213 10:40:07.795840 10744 net.cpp:409] inception_4b/output -> inception_4b/output
I1213 10:40:07.795882 10744 net.cpp:144] Setting up inception_4b/output
I1213 10:40:07.795895 10744 net.cpp:151] Top shape: 2 512 24 78 (1916928)
I1213 10:40:07.795902 10744 net.cpp:159] Memory required for data: 791484800
I1213 10:40:07.795909 10744 layer_factory.hpp:77] Creating layer inception_4b/output_inception_4b/output_0_split
I1213 10:40:07.795922 10744 net.cpp:94] Creating Layer inception_4b/output_inception_4b/output_0_split
I1213 10:40:07.795929 10744 net.cpp:435] inception_4b/output_inception_4b/output_0_split <- inception_4b/output
I1213 10:40:07.795940 10744 net.cpp:409] inception_4b/output_inception_4b/output_0_split -> inception_4b/output_inception_4b/output_0_split_0
I1213 10:40:07.795954 10744 net.cpp:409] inception_4b/output_inception_4b/output_0_split -> inception_4b/output_inception_4b/output_0_split_1
I1213 10:40:07.795966 10744 net.cpp:409] inception_4b/output_inception_4b/output_0_split -> inception_4b/output_inception_4b/output_0_split_2
I1213 10:40:07.795979 10744 net.cpp:409] inception_4b/output_inception_4b/output_0_split -> inception_4b/output_inception_4b/output_0_split_3
I1213 10:40:07.796056 10744 net.cpp:144] Setting up inception_4b/output_inception_4b/output_0_split
I1213 10:40:07.796069 10744 net.cpp:151] Top shape: 2 512 24 78 (1916928)
I1213 10:40:07.796078 10744 net.cpp:151] Top shape: 2 512 24 78 (1916928)
I1213 10:40:07.796087 10744 net.cpp:151] Top shape: 2 512 24 78 (1916928)
I1213 10:40:07.796095 10744 net.cpp:151] Top shape: 2 512 24 78 (1916928)
I1213 10:40:07.796103 10744 net.cpp:159] Memory required for data: 822155648
I1213 10:40:07.796109 10744 layer_factory.hpp:77] Creating layer inception_4c/1x1
I1213 10:40:07.796125 10744 net.cpp:94] Creating Layer inception_4c/1x1
I1213 10:40:07.796133 10744 net.cpp:435] inception_4c/1x1 <- inception_4b/output_inception_4b/output_0_split_0
I1213 10:40:07.796146 10744 net.cpp:409] inception_4c/1x1 -> inception_4c/1x1
I1213 10:40:07.796973 10744 net.cpp:144] Setting up inception_4c/1x1
I1213 10:40:07.796993 10744 net.cpp:151] Top shape: 2 128 24 78 (479232)
I1213 10:40:07.796999 10744 net.cpp:159] Memory required for data: 824072576
I1213 10:40:07.797011 10744 layer_factory.hpp:77] Creating layer inception_4c/relu_1x1
I1213 10:40:07.797022 10744 net.cpp:94] Creating Layer inception_4c/relu_1x1
I1213 10:40:07.797030 10744 net.cpp:435] inception_4c/relu_1x1 <- inception_4c/1x1
I1213 10:40:07.797044 10744 net.cpp:396] inception_4c/relu_1x1 -> inception_4c/1x1 (in-place)
I1213 10:40:07.797056 10744 net.cpp:144] Setting up inception_4c/relu_1x1
I1213 10:40:07.797066 10744 net.cpp:151] Top shape: 2 128 24 78 (479232)
I1213 10:40:07.797073 10744 net.cpp:159] Memory required for data: 825989504
I1213 10:40:07.797080 10744 layer_factory.hpp:77] Creating layer inception_4c/3x3_reduce
I1213 10:40:07.797096 10744 net.cpp:94] Creating Layer inception_4c/3x3_reduce
I1213 10:40:07.797104 10744 net.cpp:435] inception_4c/3x3_reduce <- inception_4b/output_inception_4b/output_0_split_1
I1213 10:40:07.797116 10744 net.cpp:409] inception_4c/3x3_reduce -> inception_4c/3x3_reduce
I1213 10:40:07.797888 10744 net.cpp:144] Setting up inception_4c/3x3_reduce
I1213 10:40:07.797904 10744 net.cpp:151] Top shape: 2 128 24 78 (479232)
I1213 10:40:07.797912 10744 net.cpp:159] Memory required for data: 827906432
I1213 10:40:07.797924 10744 layer_factory.hpp:77] Creating layer inception_4c/relu_3x3_reduce
I1213 10:40:07.797950 10744 net.cpp:94] Creating Layer inception_4c/relu_3x3_reduce
I1213 10:40:07.797960 10744 net.cpp:435] inception_4c/relu_3x3_reduce <- inception_4c/3x3_reduce
I1213 10:40:07.797971 10744 net.cpp:396] inception_4c/relu_3x3_reduce -> inception_4c/3x3_reduce (in-place)
I1213 10:40:07.797984 10744 net.cpp:144] Setting up inception_4c/relu_3x3_reduce
I1213 10:40:07.797994 10744 net.cpp:151] Top shape: 2 128 24 78 (479232)
I1213 10:40:07.798002 10744 net.cpp:159] Memory required for data: 829823360
I1213 10:40:07.798008 10744 layer_factory.hpp:77] Creating layer inception_4c/3x3
I1213 10:40:07.798023 10744 net.cpp:94] Creating Layer inception_4c/3x3
I1213 10:40:07.798032 10744 net.cpp:435] inception_4c/3x3 <- inception_4c/3x3_reduce
I1213 10:40:07.798044 10744 net.cpp:409] inception_4c/3x3 -> inception_4c/3x3
I1213 10:40:07.800467 10744 net.cpp:144] Setting up inception_4c/3x3
I1213 10:40:07.800489 10744 net.cpp:151] Top shape: 2 256 24 78 (958464)
I1213 10:40:07.800496 10744 net.cpp:159] Memory required for data: 833657216
I1213 10:40:07.800508 10744 layer_factory.hpp:77] Creating layer inception_4c/relu_3x3
I1213 10:40:07.800520 10744 net.cpp:94] Creating Layer inception_4c/relu_3x3
I1213 10:40:07.800529 10744 net.cpp:435] inception_4c/relu_3x3 <- inception_4c/3x3
I1213 10:40:07.800539 10744 net.cpp:396] inception_4c/relu_3x3 -> inception_4c/3x3 (in-place)
I1213 10:40:07.800554 10744 net.cpp:144] Setting up inception_4c/relu_3x3
I1213 10:40:07.800564 10744 net.cpp:151] Top shape: 2 256 24 78 (958464)
I1213 10:40:07.800570 10744 net.cpp:159] Memory required for data: 837491072
I1213 10:40:07.800577 10744 layer_factory.hpp:77] Creating layer inception_4c/5x5_reduce
I1213 10:40:07.800592 10744 net.cpp:94] Creating Layer inception_4c/5x5_reduce
I1213 10:40:07.800601 10744 net.cpp:435] inception_4c/5x5_reduce <- inception_4b/output_inception_4b/output_0_split_2
I1213 10:40:07.800614 10744 net.cpp:409] inception_4c/5x5_reduce -> inception_4c/5x5_reduce
I1213 10:40:07.801030 10744 net.cpp:144] Setting up inception_4c/5x5_reduce
I1213 10:40:07.801048 10744 net.cpp:151] Top shape: 2 24 24 78 (89856)
I1213 10:40:07.801055 10744 net.cpp:159] Memory required for data: 837850496
I1213 10:40:07.801066 10744 layer_factory.hpp:77] Creating layer inception_4c/relu_5x5_reduce
I1213 10:40:07.801079 10744 net.cpp:94] Creating Layer inception_4c/relu_5x5_reduce
I1213 10:40:07.801086 10744 net.cpp:435] inception_4c/relu_5x5_reduce <- inception_4c/5x5_reduce
I1213 10:40:07.801097 10744 net.cpp:396] inception_4c/relu_5x5_reduce -> inception_4c/5x5_reduce (in-place)
I1213 10:40:07.801110 10744 net.cpp:144] Setting up inception_4c/relu_5x5_reduce
I1213 10:40:07.801120 10744 net.cpp:151] Top shape: 2 24 24 78 (89856)
I1213 10:40:07.801127 10744 net.cpp:159] Memory required for data: 838209920
I1213 10:40:07.801134 10744 layer_factory.hpp:77] Creating layer inception_4c/5x5
I1213 10:40:07.801149 10744 net.cpp:94] Creating Layer inception_4c/5x5
I1213 10:40:07.801157 10744 net.cpp:435] inception_4c/5x5 <- inception_4c/5x5_reduce
I1213 10:40:07.801169 10744 net.cpp:409] inception_4c/5x5 -> inception_4c/5x5
I1213 10:40:07.803186 10744 net.cpp:144] Setting up inception_4c/5x5
I1213 10:40:07.803208 10744 net.cpp:151] Top shape: 2 64 24 78 (239616)
I1213 10:40:07.803216 10744 net.cpp:159] Memory required for data: 839168384
I1213 10:40:07.803228 10744 layer_factory.hpp:77] Creating layer inception_4c/relu_5x5
I1213 10:40:07.803241 10744 net.cpp:94] Creating Layer inception_4c/relu_5x5
I1213 10:40:07.803248 10744 net.cpp:435] inception_4c/relu_5x5 <- inception_4c/5x5
I1213 10:40:07.803259 10744 net.cpp:396] inception_4c/relu_5x5 -> inception_4c/5x5 (in-place)
I1213 10:40:07.803273 10744 net.cpp:144] Setting up inception_4c/relu_5x5
I1213 10:40:07.803283 10744 net.cpp:151] Top shape: 2 64 24 78 (239616)
I1213 10:40:07.803290 10744 net.cpp:159] Memory required for data: 840126848
I1213 10:40:07.803297 10744 layer_factory.hpp:77] Creating layer inception_4c/pool
I1213 10:40:07.803326 10744 net.cpp:94] Creating Layer inception_4c/pool
I1213 10:40:07.803336 10744 net.cpp:435] inception_4c/pool <- inception_4b/output_inception_4b/output_0_split_3
I1213 10:40:07.803347 10744 net.cpp:409] inception_4c/pool -> inception_4c/pool
I1213 10:40:07.803408 10744 net.cpp:144] Setting up inception_4c/pool
I1213 10:40:07.803423 10744 net.cpp:151] Top shape: 2 512 24 78 (1916928)
I1213 10:40:07.803431 10744 net.cpp:159] Memory required for data: 847794560
I1213 10:40:07.803438 10744 layer_factory.hpp:77] Creating layer inception_4c/pool_proj
I1213 10:40:07.803454 10744 net.cpp:94] Creating Layer inception_4c/pool_proj
I1213 10:40:07.803463 10744 net.cpp:435] inception_4c/pool_proj <- inception_4c/pool
I1213 10:40:07.803475 10744 net.cpp:409] inception_4c/pool_proj -> inception_4c/pool_proj
I1213 10:40:07.804026 10744 net.cpp:144] Setting up inception_4c/pool_proj
I1213 10:40:07.804044 10744 net.cpp:151] Top shape: 2 64 24 78 (239616)
I1213 10:40:07.804051 10744 net.cpp:159] Memory required for data: 848753024
I1213 10:40:07.804076 10744 layer_factory.hpp:77] Creating layer inception_4c/relu_pool_proj
I1213 10:40:07.804088 10744 net.cpp:94] Creating Layer inception_4c/relu_pool_proj
I1213 10:40:07.804097 10744 net.cpp:435] inception_4c/relu_pool_proj <- inception_4c/pool_proj
I1213 10:40:07.804108 10744 net.cpp:396] inception_4c/relu_pool_proj -> inception_4c/pool_proj (in-place)
I1213 10:40:07.804122 10744 net.cpp:144] Setting up inception_4c/relu_pool_proj
I1213 10:40:07.804131 10744 net.cpp:151] Top shape: 2 64 24 78 (239616)
I1213 10:40:07.804138 10744 net.cpp:159] Memory required for data: 849711488
I1213 10:40:07.804146 10744 layer_factory.hpp:77] Creating layer inception_4c/output
I1213 10:40:07.804157 10744 net.cpp:94] Creating Layer inception_4c/output
I1213 10:40:07.804164 10744 net.cpp:435] inception_4c/output <- inception_4c/1x1
I1213 10:40:07.804177 10744 net.cpp:435] inception_4c/output <- inception_4c/3x3
I1213 10:40:07.804184 10744 net.cpp:435] inception_4c/output <- inception_4c/5x5
I1213 10:40:07.804193 10744 net.cpp:435] inception_4c/output <- inception_4c/pool_proj
I1213 10:40:07.804203 10744 net.cpp:409] inception_4c/output -> inception_4c/output
I1213 10:40:07.804244 10744 net.cpp:144] Setting up inception_4c/output
I1213 10:40:07.804257 10744 net.cpp:151] Top shape: 2 512 24 78 (1916928)
I1213 10:40:07.804265 10744 net.cpp:159] Memory required for data: 857379200
I1213 10:40:07.804271 10744 layer_factory.hpp:77] Creating layer inception_4c/output_inception_4c/output_0_split
I1213 10:40:07.804283 10744 net.cpp:94] Creating Layer inception_4c/output_inception_4c/output_0_split
I1213 10:40:07.804291 10744 net.cpp:435] inception_4c/output_inception_4c/output_0_split <- inception_4c/output
I1213 10:40:07.804303 10744 net.cpp:409] inception_4c/output_inception_4c/output_0_split -> inception_4c/output_inception_4c/output_0_split_0
I1213 10:40:07.804316 10744 net.cpp:409] inception_4c/output_inception_4c/output_0_split -> inception_4c/output_inception_4c/output_0_split_1
I1213 10:40:07.804328 10744 net.cpp:409] inception_4c/output_inception_4c/output_0_split -> inception_4c/output_inception_4c/output_0_split_2
I1213 10:40:07.804342 10744 net.cpp:409] inception_4c/output_inception_4c/output_0_split -> inception_4c/output_inception_4c/output_0_split_3
I1213 10:40:07.804422 10744 net.cpp:144] Setting up inception_4c/output_inception_4c/output_0_split
I1213 10:40:07.804436 10744 net.cpp:151] Top shape: 2 512 24 78 (1916928)
I1213 10:40:07.804445 10744 net.cpp:151] Top shape: 2 512 24 78 (1916928)
I1213 10:40:07.804453 10744 net.cpp:151] Top shape: 2 512 24 78 (1916928)
I1213 10:40:07.804462 10744 net.cpp:151] Top shape: 2 512 24 78 (1916928)
I1213 10:40:07.804468 10744 net.cpp:159] Memory required for data: 888050048
I1213 10:40:07.804476 10744 layer_factory.hpp:77] Creating layer inception_4d/1x1
I1213 10:40:07.804491 10744 net.cpp:94] Creating Layer inception_4d/1x1
I1213 10:40:07.804499 10744 net.cpp:435] inception_4d/1x1 <- inception_4c/output_inception_4c/output_0_split_0
I1213 10:40:07.804512 10744 net.cpp:409] inception_4d/1x1 -> inception_4d/1x1
I1213 10:40:07.805258 10744 net.cpp:144] Setting up inception_4d/1x1
I1213 10:40:07.805275 10744 net.cpp:151] Top shape: 2 112 24 78 (419328)
I1213 10:40:07.805282 10744 net.cpp:159] Memory required for data: 889727360
I1213 10:40:07.805294 10744 layer_factory.hpp:77] Creating layer inception_4d/relu_1x1
I1213 10:40:07.805305 10744 net.cpp:94] Creating Layer inception_4d/relu_1x1
I1213 10:40:07.805315 10744 net.cpp:435] inception_4d/relu_1x1 <- inception_4d/1x1
I1213 10:40:07.805325 10744 net.cpp:396] inception_4d/relu_1x1 -> inception_4d/1x1 (in-place)
I1213 10:40:07.805338 10744 net.cpp:144] Setting up inception_4d/relu_1x1
I1213 10:40:07.805348 10744 net.cpp:151] Top shape: 2 112 24 78 (419328)
I1213 10:40:07.805356 10744 net.cpp:159] Memory required for data: 891404672
I1213 10:40:07.805362 10744 layer_factory.hpp:77] Creating layer inception_4d/3x3_reduce
I1213 10:40:07.805377 10744 net.cpp:94] Creating Layer inception_4d/3x3_reduce
I1213 10:40:07.805385 10744 net.cpp:435] inception_4d/3x3_reduce <- inception_4c/output_inception_4c/output_0_split_1
I1213 10:40:07.805398 10744 net.cpp:409] inception_4d/3x3_reduce -> inception_4d/3x3_reduce
I1213 10:40:07.807610 10744 net.cpp:144] Setting up inception_4d/3x3_reduce
I1213 10:40:07.807631 10744 net.cpp:151] Top shape: 2 144 24 78 (539136)
I1213 10:40:07.807639 10744 net.cpp:159] Memory required for data: 893561216
I1213 10:40:07.807651 10744 layer_factory.hpp:77] Creating layer inception_4d/relu_3x3_reduce
I1213 10:40:07.807664 10744 net.cpp:94] Creating Layer inception_4d/relu_3x3_reduce
I1213 10:40:07.807673 10744 net.cpp:435] inception_4d/relu_3x3_reduce <- inception_4d/3x3_reduce
I1213 10:40:07.807684 10744 net.cpp:396] inception_4d/relu_3x3_reduce -> inception_4d/3x3_reduce (in-place)
I1213 10:40:07.807699 10744 net.cpp:144] Setting up inception_4d/relu_3x3_reduce
I1213 10:40:07.807709 10744 net.cpp:151] Top shape: 2 144 24 78 (539136)
I1213 10:40:07.807716 10744 net.cpp:159] Memory required for data: 895717760
I1213 10:40:07.807723 10744 layer_factory.hpp:77] Creating layer inception_4d/3x3
I1213 10:40:07.807739 10744 net.cpp:94] Creating Layer inception_4d/3x3
I1213 10:40:07.807747 10744 net.cpp:435] inception_4d/3x3 <- inception_4d/3x3_reduce
I1213 10:40:07.807760 10744 net.cpp:409] inception_4d/3x3 -> inception_4d/3x3
I1213 10:40:07.810690 10744 net.cpp:144] Setting up inception_4d/3x3
I1213 10:40:07.810709 10744 net.cpp:151] Top shape: 2 288 24 78 (1078272)
I1213 10:40:07.810717 10744 net.cpp:159] Memory required for data: 900030848
I1213 10:40:07.810729 10744 layer_factory.hpp:77] Creating layer inception_4d/relu_3x3
I1213 10:40:07.810740 10744 net.cpp:94] Creating Layer inception_4d/relu_3x3
I1213 10:40:07.810750 10744 net.cpp:435] inception_4d/relu_3x3 <- inception_4d/3x3
I1213 10:40:07.810760 10744 net.cpp:396] inception_4d/relu_3x3 -> inception_4d/3x3 (in-place)
I1213 10:40:07.810775 10744 net.cpp:144] Setting up inception_4d/relu_3x3
I1213 10:40:07.810784 10744 net.cpp:151] Top shape: 2 288 24 78 (1078272)
I1213 10:40:07.810791 10744 net.cpp:159] Memory required for data: 904343936
I1213 10:40:07.810798 10744 layer_factory.hpp:77] Creating layer inception_4d/5x5_reduce
I1213 10:40:07.810813 10744 net.cpp:94] Creating Layer inception_4d/5x5_reduce
I1213 10:40:07.810822 10744 net.cpp:435] inception_4d/5x5_reduce <- inception_4c/output_inception_4c/output_0_split_2
I1213 10:40:07.810835 10744 net.cpp:409] inception_4d/5x5_reduce -> inception_4d/5x5_reduce
I1213 10:40:07.811295 10744 net.cpp:144] Setting up inception_4d/5x5_reduce
I1213 10:40:07.811311 10744 net.cpp:151] Top shape: 2 32 24 78 (119808)
I1213 10:40:07.811318 10744 net.cpp:159] Memory required for data: 904823168
I1213 10:40:07.811331 10744 layer_factory.hpp:77] Creating layer inception_4d/relu_5x5_reduce
I1213 10:40:07.811342 10744 net.cpp:94] Creating Layer inception_4d/relu_5x5_reduce
I1213 10:40:07.811350 10744 net.cpp:435] inception_4d/relu_5x5_reduce <- inception_4d/5x5_reduce
I1213 10:40:07.811360 10744 net.cpp:396] inception_4d/relu_5x5_reduce -> inception_4d/5x5_reduce (in-place)
I1213 10:40:07.811391 10744 net.cpp:144] Setting up inception_4d/relu_5x5_reduce
I1213 10:40:07.811403 10744 net.cpp:151] Top shape: 2 32 24 78 (119808)
I1213 10:40:07.811410 10744 net.cpp:159] Memory required for data: 905302400
I1213 10:40:07.811417 10744 layer_factory.hpp:77] Creating layer inception_4d/5x5
I1213 10:40:07.811434 10744 net.cpp:94] Creating Layer inception_4d/5x5
I1213 10:40:07.811442 10744 net.cpp:435] inception_4d/5x5 <- inception_4d/5x5_reduce
I1213 10:40:07.811455 10744 net.cpp:409] inception_4d/5x5 -> inception_4d/5x5
I1213 10:40:07.812219 10744 net.cpp:144] Setting up inception_4d/5x5
I1213 10:40:07.812238 10744 net.cpp:151] Top shape: 2 64 24 78 (239616)
I1213 10:40:07.812245 10744 net.cpp:159] Memory required for data: 906260864
I1213 10:40:07.812258 10744 layer_factory.hpp:77] Creating layer inception_4d/relu_5x5
I1213 10:40:07.812269 10744 net.cpp:94] Creating Layer inception_4d/relu_5x5
I1213 10:40:07.812278 10744 net.cpp:435] inception_4d/relu_5x5 <- inception_4d/5x5
I1213 10:40:07.812288 10744 net.cpp:396] inception_4d/relu_5x5 -> inception_4d/5x5 (in-place)
I1213 10:40:07.812301 10744 net.cpp:144] Setting up inception_4d/relu_5x5
I1213 10:40:07.812311 10744 net.cpp:151] Top shape: 2 64 24 78 (239616)
I1213 10:40:07.812319 10744 net.cpp:159] Memory required for data: 907219328
I1213 10:40:07.812326 10744 layer_factory.hpp:77] Creating layer inception_4d/pool
I1213 10:40:07.812336 10744 net.cpp:94] Creating Layer inception_4d/pool
I1213 10:40:07.812345 10744 net.cpp:435] inception_4d/pool <- inception_4c/output_inception_4c/output_0_split_3
I1213 10:40:07.812356 10744 net.cpp:409] inception_4d/pool -> inception_4d/pool
I1213 10:40:07.812414 10744 net.cpp:144] Setting up inception_4d/pool
I1213 10:40:07.812429 10744 net.cpp:151] Top shape: 2 512 24 78 (1916928)
I1213 10:40:07.812436 10744 net.cpp:159] Memory required for data: 914887040
I1213 10:40:07.812444 10744 layer_factory.hpp:77] Creating layer inception_4d/pool_proj
I1213 10:40:07.812459 10744 net.cpp:94] Creating Layer inception_4d/pool_proj
I1213 10:40:07.812469 10744 net.cpp:435] inception_4d/pool_proj <- inception_4d/pool
I1213 10:40:07.812481 10744 net.cpp:409] inception_4d/pool_proj -> inception_4d/pool_proj
I1213 10:40:07.813046 10744 net.cpp:144] Setting up inception_4d/pool_proj
I1213 10:40:07.813065 10744 net.cpp:151] Top shape: 2 64 24 78 (239616)
I1213 10:40:07.813071 10744 net.cpp:159] Memory required for data: 915845504
I1213 10:40:07.813083 10744 layer_factory.hpp:77] Creating layer inception_4d/relu_pool_proj
I1213 10:40:07.813093 10744 net.cpp:94] Creating Layer inception_4d/relu_pool_proj
I1213 10:40:07.813102 10744 net.cpp:435] inception_4d/relu_pool_proj <- inception_4d/pool_proj
I1213 10:40:07.813113 10744 net.cpp:396] inception_4d/relu_pool_proj -> inception_4d/pool_proj (in-place)
I1213 10:40:07.813127 10744 net.cpp:144] Setting up inception_4d/relu_pool_proj
I1213 10:40:07.813136 10744 net.cpp:151] Top shape: 2 64 24 78 (239616)
I1213 10:40:07.813144 10744 net.cpp:159] Memory required for data: 916803968
I1213 10:40:07.813151 10744 layer_factory.hpp:77] Creating layer inception_4d/output
I1213 10:40:07.813163 10744 net.cpp:94] Creating Layer inception_4d/output
I1213 10:40:07.813170 10744 net.cpp:435] inception_4d/output <- inception_4d/1x1
I1213 10:40:07.813179 10744 net.cpp:435] inception_4d/output <- inception_4d/3x3
I1213 10:40:07.813189 10744 net.cpp:435] inception_4d/output <- inception_4d/5x5
I1213 10:40:07.813196 10744 net.cpp:435] inception_4d/output <- inception_4d/pool_proj
I1213 10:40:07.813206 10744 net.cpp:409] inception_4d/output -> inception_4d/output
I1213 10:40:07.813247 10744 net.cpp:144] Setting up inception_4d/output
I1213 10:40:07.813261 10744 net.cpp:151] Top shape: 2 528 24 78 (1976832)
I1213 10:40:07.813268 10744 net.cpp:159] Memory required for data: 924711296
I1213 10:40:07.813277 10744 layer_factory.hpp:77] Creating layer inception_4d/output_inception_4d/output_0_split
I1213 10:40:07.813287 10744 net.cpp:94] Creating Layer inception_4d/output_inception_4d/output_0_split
I1213 10:40:07.813310 10744 net.cpp:435] inception_4d/output_inception_4d/output_0_split <- inception_4d/output
I1213 10:40:07.813324 10744 net.cpp:409] inception_4d/output_inception_4d/output_0_split -> inception_4d/output_inception_4d/output_0_split_0
I1213 10:40:07.813338 10744 net.cpp:409] inception_4d/output_inception_4d/output_0_split -> inception_4d/output_inception_4d/output_0_split_1
I1213 10:40:07.813351 10744 net.cpp:409] inception_4d/output_inception_4d/output_0_split -> inception_4d/output_inception_4d/output_0_split_2
I1213 10:40:07.813364 10744 net.cpp:409] inception_4d/output_inception_4d/output_0_split -> inception_4d/output_inception_4d/output_0_split_3
I1213 10:40:07.813494 10744 net.cpp:144] Setting up inception_4d/output_inception_4d/output_0_split
I1213 10:40:07.813511 10744 net.cpp:151] Top shape: 2 528 24 78 (1976832)
I1213 10:40:07.813520 10744 net.cpp:151] Top shape: 2 528 24 78 (1976832)
I1213 10:40:07.813529 10744 net.cpp:151] Top shape: 2 528 24 78 (1976832)
I1213 10:40:07.813537 10744 net.cpp:151] Top shape: 2 528 24 78 (1976832)
I1213 10:40:07.813544 10744 net.cpp:159] Memory required for data: 956340608
I1213 10:40:07.813552 10744 layer_factory.hpp:77] Creating layer inception_4e/1x1
I1213 10:40:07.813568 10744 net.cpp:94] Creating Layer inception_4e/1x1
I1213 10:40:07.813576 10744 net.cpp:435] inception_4e/1x1 <- inception_4d/output_inception_4d/output_0_split_0
I1213 10:40:07.813590 10744 net.cpp:409] inception_4e/1x1 -> inception_4e/1x1
I1213 10:40:07.816208 10744 net.cpp:144] Setting up inception_4e/1x1
I1213 10:40:07.816231 10744 net.cpp:151] Top shape: 2 256 24 78 (958464)
I1213 10:40:07.816238 10744 net.cpp:159] Memory required for data: 960174464
I1213 10:40:07.816251 10744 layer_factory.hpp:77] Creating layer inception_4e/relu_1x1
I1213 10:40:07.816262 10744 net.cpp:94] Creating Layer inception_4e/relu_1x1
I1213 10:40:07.816272 10744 net.cpp:435] inception_4e/relu_1x1 <- inception_4e/1x1
I1213 10:40:07.816282 10744 net.cpp:396] inception_4e/relu_1x1 -> inception_4e/1x1 (in-place)
I1213 10:40:07.816298 10744 net.cpp:144] Setting up inception_4e/relu_1x1
I1213 10:40:07.816306 10744 net.cpp:151] Top shape: 2 256 24 78 (958464)
I1213 10:40:07.816313 10744 net.cpp:159] Memory required for data: 964008320
I1213 10:40:07.816320 10744 layer_factory.hpp:77] Creating layer inception_4e/3x3_reduce
I1213 10:40:07.816336 10744 net.cpp:94] Creating Layer inception_4e/3x3_reduce
I1213 10:40:07.816344 10744 net.cpp:435] inception_4e/3x3_reduce <- inception_4d/output_inception_4d/output_0_split_1
I1213 10:40:07.816357 10744 net.cpp:409] inception_4e/3x3_reduce -> inception_4e/3x3_reduce
I1213 10:40:07.817275 10744 net.cpp:144] Setting up inception_4e/3x3_reduce
I1213 10:40:07.817292 10744 net.cpp:151] Top shape: 2 160 24 78 (599040)
I1213 10:40:07.817301 10744 net.cpp:159] Memory required for data: 966404480
I1213 10:40:07.817312 10744 layer_factory.hpp:77] Creating layer inception_4e/relu_3x3_reduce
I1213 10:40:07.817322 10744 net.cpp:94] Creating Layer inception_4e/relu_3x3_reduce
I1213 10:40:07.817332 10744 net.cpp:435] inception_4e/relu_3x3_reduce <- inception_4e/3x3_reduce
I1213 10:40:07.817342 10744 net.cpp:396] inception_4e/relu_3x3_reduce -> inception_4e/3x3_reduce (in-place)
I1213 10:40:07.817356 10744 net.cpp:144] Setting up inception_4e/relu_3x3_reduce
I1213 10:40:07.817366 10744 net.cpp:151] Top shape: 2 160 24 78 (599040)
I1213 10:40:07.817373 10744 net.cpp:159] Memory required for data: 968800640
I1213 10:40:07.817380 10744 layer_factory.hpp:77] Creating layer inception_4e/3x3
I1213 10:40:07.817395 10744 net.cpp:94] Creating Layer inception_4e/3x3
I1213 10:40:07.817404 10744 net.cpp:435] inception_4e/3x3 <- inception_4e/3x3_reduce
I1213 10:40:07.817415 10744 net.cpp:409] inception_4e/3x3 -> inception_4e/3x3
I1213 10:40:07.822278 10744 net.cpp:144] Setting up inception_4e/3x3
I1213 10:40:07.822300 10744 net.cpp:151] Top shape: 2 320 24 78 (1198080)
I1213 10:40:07.822309 10744 net.cpp:159] Memory required for data: 973592960
I1213 10:40:07.822321 10744 layer_factory.hpp:77] Creating layer inception_4e/relu_3x3
I1213 10:40:07.822350 10744 net.cpp:94] Creating Layer inception_4e/relu_3x3
I1213 10:40:07.822360 10744 net.cpp:435] inception_4e/relu_3x3 <- inception_4e/3x3
I1213 10:40:07.822371 10744 net.cpp:396] inception_4e/relu_3x3 -> inception_4e/3x3 (in-place)
I1213 10:40:07.822386 10744 net.cpp:144] Setting up inception_4e/relu_3x3
I1213 10:40:07.822407 10744 net.cpp:151] Top shape: 2 320 24 78 (1198080)
I1213 10:40:07.822417 10744 net.cpp:159] Memory required for data: 978385280
I1213 10:40:07.822423 10744 layer_factory.hpp:77] Creating layer inception_4e/5x5_reduce
I1213 10:40:07.822440 10744 net.cpp:94] Creating Layer inception_4e/5x5_reduce
I1213 10:40:07.822449 10744 net.cpp:435] inception_4e/5x5_reduce <- inception_4d/output_inception_4d/output_0_split_2
I1213 10:40:07.822463 10744 net.cpp:409] inception_4e/5x5_reduce -> inception_4e/5x5_reduce
I1213 10:40:07.822926 10744 net.cpp:144] Setting up inception_4e/5x5_reduce
I1213 10:40:07.822943 10744 net.cpp:151] Top shape: 2 32 24 78 (119808)
I1213 10:40:07.822950 10744 net.cpp:159] Memory required for data: 978864512
I1213 10:40:07.822962 10744 layer_factory.hpp:77] Creating layer inception_4e/relu_5x5_reduce
I1213 10:40:07.822974 10744 net.cpp:94] Creating Layer inception_4e/relu_5x5_reduce
I1213 10:40:07.822983 10744 net.cpp:435] inception_4e/relu_5x5_reduce <- inception_4e/5x5_reduce
I1213 10:40:07.822993 10744 net.cpp:396] inception_4e/relu_5x5_reduce -> inception_4e/5x5_reduce (in-place)
I1213 10:40:07.823007 10744 net.cpp:144] Setting up inception_4e/relu_5x5_reduce
I1213 10:40:07.823016 10744 net.cpp:151] Top shape: 2 32 24 78 (119808)
I1213 10:40:07.823024 10744 net.cpp:159] Memory required for data: 979343744
I1213 10:40:07.823030 10744 layer_factory.hpp:77] Creating layer inception_4e/5x5
I1213 10:40:07.823046 10744 net.cpp:94] Creating Layer inception_4e/5x5
I1213 10:40:07.823055 10744 net.cpp:435] inception_4e/5x5 <- inception_4e/5x5_reduce
I1213 10:40:07.823066 10744 net.cpp:409] inception_4e/5x5 -> inception_4e/5x5
I1213 10:40:07.824108 10744 net.cpp:144] Setting up inception_4e/5x5
I1213 10:40:07.824126 10744 net.cpp:151] Top shape: 2 128 24 78 (479232)
I1213 10:40:07.824133 10744 net.cpp:159] Memory required for data: 981260672
I1213 10:40:07.824144 10744 layer_factory.hpp:77] Creating layer inception_4e/relu_5x5
I1213 10:40:07.824156 10744 net.cpp:94] Creating Layer inception_4e/relu_5x5
I1213 10:40:07.824163 10744 net.cpp:435] inception_4e/relu_5x5 <- inception_4e/5x5
I1213 10:40:07.824174 10744 net.cpp:396] inception_4e/relu_5x5 -> inception_4e/5x5 (in-place)
I1213 10:40:07.824187 10744 net.cpp:144] Setting up inception_4e/relu_5x5
I1213 10:40:07.824198 10744 net.cpp:151] Top shape: 2 128 24 78 (479232)
I1213 10:40:07.824204 10744 net.cpp:159] Memory required for data: 983177600
I1213 10:40:07.824211 10744 layer_factory.hpp:77] Creating layer inception_4e/pool
I1213 10:40:07.824223 10744 net.cpp:94] Creating Layer inception_4e/pool
I1213 10:40:07.824232 10744 net.cpp:435] inception_4e/pool <- inception_4d/output_inception_4d/output_0_split_3
I1213 10:40:07.824244 10744 net.cpp:409] inception_4e/pool -> inception_4e/pool
I1213 10:40:07.824303 10744 net.cpp:144] Setting up inception_4e/pool
I1213 10:40:07.824318 10744 net.cpp:151] Top shape: 2 528 24 78 (1976832)
I1213 10:40:07.824326 10744 net.cpp:159] Memory required for data: 991084928
I1213 10:40:07.824332 10744 layer_factory.hpp:77] Creating layer inception_4e/pool_proj
I1213 10:40:07.824348 10744 net.cpp:94] Creating Layer inception_4e/pool_proj
I1213 10:40:07.824357 10744 net.cpp:435] inception_4e/pool_proj <- inception_4e/pool
I1213 10:40:07.824369 10744 net.cpp:409] inception_4e/pool_proj -> inception_4e/pool_proj
I1213 10:40:07.825165 10744 net.cpp:144] Setting up inception_4e/pool_proj
I1213 10:40:07.825181 10744 net.cpp:151] Top shape: 2 128 24 78 (479232)
I1213 10:40:07.825188 10744 net.cpp:159] Memory required for data: 993001856
I1213 10:40:07.825201 10744 layer_factory.hpp:77] Creating layer inception_4e/relu_pool_proj
I1213 10:40:07.825244 10744 net.cpp:94] Creating Layer inception_4e/relu_pool_proj
I1213 10:40:07.825254 10744 net.cpp:435] inception_4e/relu_pool_proj <- inception_4e/pool_proj
I1213 10:40:07.825265 10744 net.cpp:396] inception_4e/relu_pool_proj -> inception_4e/pool_proj (in-place)
I1213 10:40:07.825280 10744 net.cpp:144] Setting up inception_4e/relu_pool_proj
I1213 10:40:07.825290 10744 net.cpp:151] Top shape: 2 128 24 78 (479232)
I1213 10:40:07.825297 10744 net.cpp:159] Memory required for data: 994918784
I1213 10:40:07.825305 10744 layer_factory.hpp:77] Creating layer inception_4e/output
I1213 10:40:07.825316 10744 net.cpp:94] Creating Layer inception_4e/output
I1213 10:40:07.825323 10744 net.cpp:435] inception_4e/output <- inception_4e/1x1
I1213 10:40:07.825332 10744 net.cpp:435] inception_4e/output <- inception_4e/3x3
I1213 10:40:07.825341 10744 net.cpp:435] inception_4e/output <- inception_4e/5x5
I1213 10:40:07.825350 10744 net.cpp:435] inception_4e/output <- inception_4e/pool_proj
I1213 10:40:07.825361 10744 net.cpp:409] inception_4e/output -> inception_4e/output
I1213 10:40:07.825402 10744 net.cpp:144] Setting up inception_4e/output
I1213 10:40:07.825419 10744 net.cpp:151] Top shape: 2 832 24 78 (3115008)
I1213 10:40:07.825426 10744 net.cpp:159] Memory required for data: 1007378816
I1213 10:40:07.825433 10744 layer_factory.hpp:77] Creating layer inception_4e/output_inception_4e/output_0_split
I1213 10:40:07.825444 10744 net.cpp:94] Creating Layer inception_4e/output_inception_4e/output_0_split
I1213 10:40:07.825453 10744 net.cpp:435] inception_4e/output_inception_4e/output_0_split <- inception_4e/output
I1213 10:40:07.825464 10744 net.cpp:409] inception_4e/output_inception_4e/output_0_split -> inception_4e/output_inception_4e/output_0_split_0
I1213 10:40:07.825477 10744 net.cpp:409] inception_4e/output_inception_4e/output_0_split -> inception_4e/output_inception_4e/output_0_split_1
I1213 10:40:07.825489 10744 net.cpp:409] inception_4e/output_inception_4e/output_0_split -> inception_4e/output_inception_4e/output_0_split_2
I1213 10:40:07.825501 10744 net.cpp:409] inception_4e/output_inception_4e/output_0_split -> inception_4e/output_inception_4e/output_0_split_3
I1213 10:40:07.825587 10744 net.cpp:144] Setting up inception_4e/output_inception_4e/output_0_split
I1213 10:40:07.825600 10744 net.cpp:151] Top shape: 2 832 24 78 (3115008)
I1213 10:40:07.825609 10744 net.cpp:151] Top shape: 2 832 24 78 (3115008)
I1213 10:40:07.825618 10744 net.cpp:151] Top shape: 2 832 24 78 (3115008)
I1213 10:40:07.825626 10744 net.cpp:151] Top shape: 2 832 24 78 (3115008)
I1213 10:40:07.825633 10744 net.cpp:159] Memory required for data: 1057218944
I1213 10:40:07.825639 10744 layer_factory.hpp:77] Creating layer inception_5a/1x1
I1213 10:40:07.825655 10744 net.cpp:94] Creating Layer inception_5a/1x1
I1213 10:40:07.825664 10744 net.cpp:435] inception_5a/1x1 <- inception_4e/output_inception_4e/output_0_split_0
I1213 10:40:07.825677 10744 net.cpp:409] inception_5a/1x1 -> inception_5a/1x1
I1213 10:40:07.828877 10744 net.cpp:144] Setting up inception_5a/1x1
I1213 10:40:07.828899 10744 net.cpp:151] Top shape: 2 256 24 78 (958464)
I1213 10:40:07.828907 10744 net.cpp:159] Memory required for data: 1061052800
I1213 10:40:07.828920 10744 layer_factory.hpp:77] Creating layer inception_5a/relu_1x1
I1213 10:40:07.828933 10744 net.cpp:94] Creating Layer inception_5a/relu_1x1
I1213 10:40:07.828940 10744 net.cpp:435] inception_5a/relu_1x1 <- inception_5a/1x1
I1213 10:40:07.828951 10744 net.cpp:396] inception_5a/relu_1x1 -> inception_5a/1x1 (in-place)
I1213 10:40:07.828966 10744 net.cpp:144] Setting up inception_5a/relu_1x1
I1213 10:40:07.828975 10744 net.cpp:151] Top shape: 2 256 24 78 (958464)
I1213 10:40:07.828982 10744 net.cpp:159] Memory required for data: 1064886656
I1213 10:40:07.828989 10744 layer_factory.hpp:77] Creating layer inception_5a/3x3_reduce
I1213 10:40:07.829005 10744 net.cpp:94] Creating Layer inception_5a/3x3_reduce
I1213 10:40:07.829013 10744 net.cpp:435] inception_5a/3x3_reduce <- inception_4e/output_inception_4e/output_0_split_1
I1213 10:40:07.829044 10744 net.cpp:409] inception_5a/3x3_reduce -> inception_5a/3x3_reduce
I1213 10:40:07.830310 10744 net.cpp:144] Setting up inception_5a/3x3_reduce
I1213 10:40:07.830328 10744 net.cpp:151] Top shape: 2 160 24 78 (599040)
I1213 10:40:07.830335 10744 net.cpp:159] Memory required for data: 1067282816
I1213 10:40:07.830348 10744 layer_factory.hpp:77] Creating layer inception_5a/relu_3x3_reduce
I1213 10:40:07.830359 10744 net.cpp:94] Creating Layer inception_5a/relu_3x3_reduce
I1213 10:40:07.830368 10744 net.cpp:435] inception_5a/relu_3x3_reduce <- inception_5a/3x3_reduce
I1213 10:40:07.830379 10744 net.cpp:396] inception_5a/relu_3x3_reduce -> inception_5a/3x3_reduce (in-place)
I1213 10:40:07.830392 10744 net.cpp:144] Setting up inception_5a/relu_3x3_reduce
I1213 10:40:07.830413 10744 net.cpp:151] Top shape: 2 160 24 78 (599040)
I1213 10:40:07.830420 10744 net.cpp:159] Memory required for data: 1069678976
I1213 10:40:07.830427 10744 layer_factory.hpp:77] Creating layer inception_5a/3x3
I1213 10:40:07.830443 10744 net.cpp:94] Creating Layer inception_5a/3x3
I1213 10:40:07.830451 10744 net.cpp:435] inception_5a/3x3 <- inception_5a/3x3_reduce
I1213 10:40:07.830463 10744 net.cpp:409] inception_5a/3x3 -> inception_5a/3x3
I1213 10:40:07.835470 10744 net.cpp:144] Setting up inception_5a/3x3
I1213 10:40:07.835500 10744 net.cpp:151] Top shape: 2 320 24 78 (1198080)
I1213 10:40:07.835508 10744 net.cpp:159] Memory required for data: 1074471296
I1213 10:40:07.835522 10744 layer_factory.hpp:77] Creating layer inception_5a/relu_3x3
I1213 10:40:07.835537 10744 net.cpp:94] Creating Layer inception_5a/relu_3x3
I1213 10:40:07.835547 10744 net.cpp:435] inception_5a/relu_3x3 <- inception_5a/3x3
I1213 10:40:07.835561 10744 net.cpp:396] inception_5a/relu_3x3 -> inception_5a/3x3 (in-place)
I1213 10:40:07.835577 10744 net.cpp:144] Setting up inception_5a/relu_3x3
I1213 10:40:07.835587 10744 net.cpp:151] Top shape: 2 320 24 78 (1198080)
I1213 10:40:07.835593 10744 net.cpp:159] Memory required for data: 1079263616
I1213 10:40:07.835600 10744 layer_factory.hpp:77] Creating layer inception_5a/5x5_reduce
I1213 10:40:07.835616 10744 net.cpp:94] Creating Layer inception_5a/5x5_reduce
I1213 10:40:07.835625 10744 net.cpp:435] inception_5a/5x5_reduce <- inception_4e/output_inception_4e/output_0_split_2
I1213 10:40:07.835638 10744 net.cpp:409] inception_5a/5x5_reduce -> inception_5a/5x5_reduce
I1213 10:40:07.836196 10744 net.cpp:144] Setting up inception_5a/5x5_reduce
I1213 10:40:07.836215 10744 net.cpp:151] Top shape: 2 32 24 78 (119808)
I1213 10:40:07.836221 10744 net.cpp:159] Memory required for data: 1079742848
I1213 10:40:07.836233 10744 layer_factory.hpp:77] Creating layer inception_5a/relu_5x5_reduce
I1213 10:40:07.836246 10744 net.cpp:94] Creating Layer inception_5a/relu_5x5_reduce
I1213 10:40:07.836253 10744 net.cpp:435] inception_5a/relu_5x5_reduce <- inception_5a/5x5_reduce
I1213 10:40:07.836264 10744 net.cpp:396] inception_5a/relu_5x5_reduce -> inception_5a/5x5_reduce (in-place)
I1213 10:40:07.836278 10744 net.cpp:144] Setting up inception_5a/relu_5x5_reduce
I1213 10:40:07.836288 10744 net.cpp:151] Top shape: 2 32 24 78 (119808)
I1213 10:40:07.836294 10744 net.cpp:159] Memory required for data: 1080222080
I1213 10:40:07.836302 10744 layer_factory.hpp:77] Creating layer inception_5a/5x5
I1213 10:40:07.836318 10744 net.cpp:94] Creating Layer inception_5a/5x5
I1213 10:40:07.836326 10744 net.cpp:435] inception_5a/5x5 <- inception_5a/5x5_reduce
I1213 10:40:07.836339 10744 net.cpp:409] inception_5a/5x5 -> inception_5a/5x5
I1213 10:40:07.837442 10744 net.cpp:144] Setting up inception_5a/5x5
I1213 10:40:07.837462 10744 net.cpp:151] Top shape: 2 128 24 78 (479232)
I1213 10:40:07.837471 10744 net.cpp:159] Memory required for data: 1082139008
I1213 10:40:07.837481 10744 layer_factory.hpp:77] Creating layer inception_5a/relu_5x5
I1213 10:40:07.837493 10744 net.cpp:94] Creating Layer inception_5a/relu_5x5
I1213 10:40:07.837502 10744 net.cpp:435] inception_5a/relu_5x5 <- inception_5a/5x5
I1213 10:40:07.837515 10744 net.cpp:396] inception_5a/relu_5x5 -> inception_5a/5x5 (in-place)
I1213 10:40:07.837553 10744 net.cpp:144] Setting up inception_5a/relu_5x5
I1213 10:40:07.837563 10744 net.cpp:151] Top shape: 2 128 24 78 (479232)
I1213 10:40:07.837570 10744 net.cpp:159] Memory required for data: 1084055936
I1213 10:40:07.837577 10744 layer_factory.hpp:77] Creating layer inception_5a/pool
I1213 10:40:07.837591 10744 net.cpp:94] Creating Layer inception_5a/pool
I1213 10:40:07.837599 10744 net.cpp:435] inception_5a/pool <- inception_4e/output_inception_4e/output_0_split_3
I1213 10:40:07.837610 10744 net.cpp:409] inception_5a/pool -> inception_5a/pool
I1213 10:40:07.837678 10744 net.cpp:144] Setting up inception_5a/pool
I1213 10:40:07.837693 10744 net.cpp:151] Top shape: 2 832 24 78 (3115008)
I1213 10:40:07.837700 10744 net.cpp:159] Memory required for data: 1096515968
I1213 10:40:07.837708 10744 layer_factory.hpp:77] Creating layer inception_5a/pool_proj
I1213 10:40:07.837724 10744 net.cpp:94] Creating Layer inception_5a/pool_proj
I1213 10:40:07.837733 10744 net.cpp:435] inception_5a/pool_proj <- inception_5a/pool
I1213 10:40:07.837745 10744 net.cpp:409] inception_5a/pool_proj -> inception_5a/pool_proj
I1213 10:40:07.838861 10744 net.cpp:144] Setting up inception_5a/pool_proj
I1213 10:40:07.838881 10744 net.cpp:151] Top shape: 2 128 24 78 (479232)
I1213 10:40:07.838887 10744 net.cpp:159] Memory required for data: 1098432896
I1213 10:40:07.838899 10744 layer_factory.hpp:77] Creating layer inception_5a/relu_pool_proj
I1213 10:40:07.838910 10744 net.cpp:94] Creating Layer inception_5a/relu_pool_proj
I1213 10:40:07.838918 10744 net.cpp:435] inception_5a/relu_pool_proj <- inception_5a/pool_proj
I1213 10:40:07.838929 10744 net.cpp:396] inception_5a/relu_pool_proj -> inception_5a/pool_proj (in-place)
I1213 10:40:07.838943 10744 net.cpp:144] Setting up inception_5a/relu_pool_proj
I1213 10:40:07.838953 10744 net.cpp:151] Top shape: 2 128 24 78 (479232)
I1213 10:40:07.838960 10744 net.cpp:159] Memory required for data: 1100349824
I1213 10:40:07.838968 10744 layer_factory.hpp:77] Creating layer inception_5a/output
I1213 10:40:07.838979 10744 net.cpp:94] Creating Layer inception_5a/output
I1213 10:40:07.838986 10744 net.cpp:435] inception_5a/output <- inception_5a/1x1
I1213 10:40:07.838996 10744 net.cpp:435] inception_5a/output <- inception_5a/3x3
I1213 10:40:07.839004 10744 net.cpp:435] inception_5a/output <- inception_5a/5x5
I1213 10:40:07.839013 10744 net.cpp:435] inception_5a/output <- inception_5a/pool_proj
I1213 10:40:07.839022 10744 net.cpp:409] inception_5a/output -> inception_5a/output
I1213 10:40:07.839066 10744 net.cpp:144] Setting up inception_5a/output
I1213 10:40:07.839081 10744 net.cpp:151] Top shape: 2 832 24 78 (3115008)
I1213 10:40:07.839087 10744 net.cpp:159] Memory required for data: 1112809856
I1213 10:40:07.839093 10744 layer_factory.hpp:77] Creating layer inception_5a/output_inception_5a/output_0_split
I1213 10:40:07.839107 10744 net.cpp:94] Creating Layer inception_5a/output_inception_5a/output_0_split
I1213 10:40:07.839115 10744 net.cpp:435] inception_5a/output_inception_5a/output_0_split <- inception_5a/output
I1213 10:40:07.839128 10744 net.cpp:409] inception_5a/output_inception_5a/output_0_split -> inception_5a/output_inception_5a/output_0_split_0
I1213 10:40:07.839140 10744 net.cpp:409] inception_5a/output_inception_5a/output_0_split -> inception_5a/output_inception_5a/output_0_split_1
I1213 10:40:07.839154 10744 net.cpp:409] inception_5a/output_inception_5a/output_0_split -> inception_5a/output_inception_5a/output_0_split_2
I1213 10:40:07.839166 10744 net.cpp:409] inception_5a/output_inception_5a/output_0_split -> inception_5a/output_inception_5a/output_0_split_3
I1213 10:40:07.839249 10744 net.cpp:144] Setting up inception_5a/output_inception_5a/output_0_split
I1213 10:40:07.839263 10744 net.cpp:151] Top shape: 2 832 24 78 (3115008)
I1213 10:40:07.839272 10744 net.cpp:151] Top shape: 2 832 24 78 (3115008)
I1213 10:40:07.839280 10744 net.cpp:151] Top shape: 2 832 24 78 (3115008)
I1213 10:40:07.839288 10744 net.cpp:151] Top shape: 2 832 24 78 (3115008)
I1213 10:40:07.839310 10744 net.cpp:159] Memory required for data: 1162649984
I1213 10:40:07.839319 10744 layer_factory.hpp:77] Creating layer inception_5b/1x1
I1213 10:40:07.839336 10744 net.cpp:94] Creating Layer inception_5b/1x1
I1213 10:40:07.839345 10744 net.cpp:435] inception_5b/1x1 <- inception_5a/output_inception_5a/output_0_split_0
I1213 10:40:07.839359 10744 net.cpp:409] inception_5b/1x1 -> inception_5b/1x1
I1213 10:40:07.843134 10744 net.cpp:144] Setting up inception_5b/1x1
I1213 10:40:07.843156 10744 net.cpp:151] Top shape: 2 384 24 78 (1437696)
I1213 10:40:07.843165 10744 net.cpp:159] Memory required for data: 1168400768
I1213 10:40:07.843178 10744 layer_factory.hpp:77] Creating layer inception_5b/relu_1x1
I1213 10:40:07.843189 10744 net.cpp:94] Creating Layer inception_5b/relu_1x1
I1213 10:40:07.843199 10744 net.cpp:435] inception_5b/relu_1x1 <- inception_5b/1x1
I1213 10:40:07.843210 10744 net.cpp:396] inception_5b/relu_1x1 -> inception_5b/1x1 (in-place)
I1213 10:40:07.843225 10744 net.cpp:144] Setting up inception_5b/relu_1x1
I1213 10:40:07.843235 10744 net.cpp:151] Top shape: 2 384 24 78 (1437696)
I1213 10:40:07.843241 10744 net.cpp:159] Memory required for data: 1174151552
I1213 10:40:07.843248 10744 layer_factory.hpp:77] Creating layer inception_5b/3x3_reduce
I1213 10:40:07.843264 10744 net.cpp:94] Creating Layer inception_5b/3x3_reduce
I1213 10:40:07.843273 10744 net.cpp:435] inception_5b/3x3_reduce <- inception_5a/output_inception_5a/output_0_split_1
I1213 10:40:07.843286 10744 net.cpp:409] inception_5b/3x3_reduce -> inception_5b/3x3_reduce
I1213 10:40:07.844794 10744 net.cpp:144] Setting up inception_5b/3x3_reduce
I1213 10:40:07.844812 10744 net.cpp:151] Top shape: 2 192 24 78 (718848)
I1213 10:40:07.844820 10744 net.cpp:159] Memory required for data: 1177026944
I1213 10:40:07.844832 10744 layer_factory.hpp:77] Creating layer inception_5b/relu_3x3_reduce
I1213 10:40:07.844844 10744 net.cpp:94] Creating Layer inception_5b/relu_3x3_reduce
I1213 10:40:07.844853 10744 net.cpp:435] inception_5b/relu_3x3_reduce <- inception_5b/3x3_reduce
I1213 10:40:07.844864 10744 net.cpp:396] inception_5b/relu_3x3_reduce -> inception_5b/3x3_reduce (in-place)
I1213 10:40:07.844878 10744 net.cpp:144] Setting up inception_5b/relu_3x3_reduce
I1213 10:40:07.844888 10744 net.cpp:151] Top shape: 2 192 24 78 (718848)
I1213 10:40:07.844895 10744 net.cpp:159] Memory required for data: 1179902336
I1213 10:40:07.844902 10744 layer_factory.hpp:77] Creating layer inception_5b/3x3
I1213 10:40:07.844918 10744 net.cpp:94] Creating Layer inception_5b/3x3
I1213 10:40:07.844926 10744 net.cpp:435] inception_5b/3x3 <- inception_5b/3x3_reduce
I1213 10:40:07.844939 10744 net.cpp:409] inception_5b/3x3 -> inception_5b/3x3
I1213 10:40:07.851529 10744 net.cpp:144] Setting up inception_5b/3x3
I1213 10:40:07.851552 10744 net.cpp:151] Top shape: 2 384 24 78 (1437696)
I1213 10:40:07.851562 10744 net.cpp:159] Memory required for data: 1185653120
I1213 10:40:07.851573 10744 layer_factory.hpp:77] Creating layer inception_5b/relu_3x3
I1213 10:40:07.851585 10744 net.cpp:94] Creating Layer inception_5b/relu_3x3
I1213 10:40:07.851594 10744 net.cpp:435] inception_5b/relu_3x3 <- inception_5b/3x3
I1213 10:40:07.851605 10744 net.cpp:396] inception_5b/relu_3x3 -> inception_5b/3x3 (in-place)
I1213 10:40:07.851619 10744 net.cpp:144] Setting up inception_5b/relu_3x3
I1213 10:40:07.851629 10744 net.cpp:151] Top shape: 2 384 24 78 (1437696)
I1213 10:40:07.851636 10744 net.cpp:159] Memory required for data: 1191403904
I1213 10:40:07.851644 10744 layer_factory.hpp:77] Creating layer inception_5b/5x5_reduce
I1213 10:40:07.851660 10744 net.cpp:94] Creating Layer inception_5b/5x5_reduce
I1213 10:40:07.851668 10744 net.cpp:435] inception_5b/5x5_reduce <- inception_5a/output_inception_5a/output_0_split_2
I1213 10:40:07.851681 10744 net.cpp:409] inception_5b/5x5_reduce -> inception_5b/5x5_reduce
I1213 10:40:07.852320 10744 net.cpp:144] Setting up inception_5b/5x5_reduce
I1213 10:40:07.852339 10744 net.cpp:151] Top shape: 2 48 24 78 (179712)
I1213 10:40:07.852345 10744 net.cpp:159] Memory required for data: 1192122752
I1213 10:40:07.852375 10744 layer_factory.hpp:77] Creating layer inception_5b/relu_5x5_reduce
I1213 10:40:07.852388 10744 net.cpp:94] Creating Layer inception_5b/relu_5x5_reduce
I1213 10:40:07.852397 10744 net.cpp:435] inception_5b/relu_5x5_reduce <- inception_5b/5x5_reduce
I1213 10:40:07.852407 10744 net.cpp:396] inception_5b/relu_5x5_reduce -> inception_5b/5x5_reduce (in-place)
I1213 10:40:07.852421 10744 net.cpp:144] Setting up inception_5b/relu_5x5_reduce
I1213 10:40:07.852432 10744 net.cpp:151] Top shape: 2 48 24 78 (179712)
I1213 10:40:07.852438 10744 net.cpp:159] Memory required for data: 1192841600
I1213 10:40:07.852445 10744 layer_factory.hpp:77] Creating layer inception_5b/5x5
I1213 10:40:07.852460 10744 net.cpp:94] Creating Layer inception_5b/5x5
I1213 10:40:07.852468 10744 net.cpp:435] inception_5b/5x5 <- inception_5b/5x5_reduce
I1213 10:40:07.852479 10744 net.cpp:409] inception_5b/5x5 -> inception_5b/5x5
I1213 10:40:07.855202 10744 net.cpp:144] Setting up inception_5b/5x5
I1213 10:40:07.855224 10744 net.cpp:151] Top shape: 2 128 24 78 (479232)
I1213 10:40:07.855232 10744 net.cpp:159] Memory required for data: 1194758528
I1213 10:40:07.855244 10744 layer_factory.hpp:77] Creating layer inception_5b/relu_5x5
I1213 10:40:07.855257 10744 net.cpp:94] Creating Layer inception_5b/relu_5x5
I1213 10:40:07.855265 10744 net.cpp:435] inception_5b/relu_5x5 <- inception_5b/5x5
I1213 10:40:07.855275 10744 net.cpp:396] inception_5b/relu_5x5 -> inception_5b/5x5 (in-place)
I1213 10:40:07.855289 10744 net.cpp:144] Setting up inception_5b/relu_5x5
I1213 10:40:07.855299 10744 net.cpp:151] Top shape: 2 128 24 78 (479232)
I1213 10:40:07.855306 10744 net.cpp:159] Memory required for data: 1196675456
I1213 10:40:07.855314 10744 layer_factory.hpp:77] Creating layer inception_5b/pool
I1213 10:40:07.855324 10744 net.cpp:94] Creating Layer inception_5b/pool
I1213 10:40:07.855334 10744 net.cpp:435] inception_5b/pool <- inception_5a/output_inception_5a/output_0_split_3
I1213 10:40:07.855345 10744 net.cpp:409] inception_5b/pool -> inception_5b/pool
I1213 10:40:07.855408 10744 net.cpp:144] Setting up inception_5b/pool
I1213 10:40:07.855422 10744 net.cpp:151] Top shape: 2 832 24 78 (3115008)
I1213 10:40:07.855429 10744 net.cpp:159] Memory required for data: 1209135488
I1213 10:40:07.855437 10744 layer_factory.hpp:77] Creating layer inception_5b/pool_proj
I1213 10:40:07.855453 10744 net.cpp:94] Creating Layer inception_5b/pool_proj
I1213 10:40:07.855461 10744 net.cpp:435] inception_5b/pool_proj <- inception_5b/pool
I1213 10:40:07.855473 10744 net.cpp:409] inception_5b/pool_proj -> inception_5b/pool_proj
I1213 10:40:07.856547 10744 net.cpp:144] Setting up inception_5b/pool_proj
I1213 10:40:07.856564 10744 net.cpp:151] Top shape: 2 128 24 78 (479232)
I1213 10:40:07.856571 10744 net.cpp:159] Memory required for data: 1211052416
I1213 10:40:07.856583 10744 layer_factory.hpp:77] Creating layer inception_5b/relu_pool_proj
I1213 10:40:07.856595 10744 net.cpp:94] Creating Layer inception_5b/relu_pool_proj
I1213 10:40:07.856602 10744 net.cpp:435] inception_5b/relu_pool_proj <- inception_5b/pool_proj
I1213 10:40:07.856613 10744 net.cpp:396] inception_5b/relu_pool_proj -> inception_5b/pool_proj (in-place)
I1213 10:40:07.856626 10744 net.cpp:144] Setting up inception_5b/relu_pool_proj
I1213 10:40:07.856637 10744 net.cpp:151] Top shape: 2 128 24 78 (479232)
I1213 10:40:07.856642 10744 net.cpp:159] Memory required for data: 1212969344
I1213 10:40:07.856649 10744 layer_factory.hpp:77] Creating layer inception_5b/output
I1213 10:40:07.856660 10744 net.cpp:94] Creating Layer inception_5b/output
I1213 10:40:07.856667 10744 net.cpp:435] inception_5b/output <- inception_5b/1x1
I1213 10:40:07.856676 10744 net.cpp:435] inception_5b/output <- inception_5b/3x3
I1213 10:40:07.856684 10744 net.cpp:435] inception_5b/output <- inception_5b/5x5
I1213 10:40:07.856693 10744 net.cpp:435] inception_5b/output <- inception_5b/pool_proj
I1213 10:40:07.856703 10744 net.cpp:409] inception_5b/output -> inception_5b/output
I1213 10:40:07.856744 10744 net.cpp:144] Setting up inception_5b/output
I1213 10:40:07.856773 10744 net.cpp:151] Top shape: 2 1024 24 78 (3833856)
I1213 10:40:07.856781 10744 net.cpp:159] Memory required for data: 1228304768
I1213 10:40:07.856789 10744 layer_factory.hpp:77] Creating layer pool5/drop_s1
I1213 10:40:07.856802 10744 net.cpp:94] Creating Layer pool5/drop_s1
I1213 10:40:07.856812 10744 net.cpp:435] pool5/drop_s1 <- inception_5b/output
I1213 10:40:07.856822 10744 net.cpp:409] pool5/drop_s1 -> pool5/drop_s1
I1213 10:40:07.856889 10744 net.cpp:144] Setting up pool5/drop_s1
I1213 10:40:07.856904 10744 net.cpp:151] Top shape: 2 1024 24 78 (3833856)
I1213 10:40:07.856910 10744 net.cpp:159] Memory required for data: 1243640192
I1213 10:40:07.856917 10744 layer_factory.hpp:77] Creating layer pool5/drop_s1_pool5/drop_s1_0_split
I1213 10:40:07.856928 10744 net.cpp:94] Creating Layer pool5/drop_s1_pool5/drop_s1_0_split
I1213 10:40:07.856935 10744 net.cpp:435] pool5/drop_s1_pool5/drop_s1_0_split <- pool5/drop_s1
I1213 10:40:07.856946 10744 net.cpp:409] pool5/drop_s1_pool5/drop_s1_0_split -> pool5/drop_s1_pool5/drop_s1_0_split_0
I1213 10:40:07.856958 10744 net.cpp:409] pool5/drop_s1_pool5/drop_s1_0_split -> pool5/drop_s1_pool5/drop_s1_0_split_1
I1213 10:40:07.857012 10744 net.cpp:144] Setting up pool5/drop_s1_pool5/drop_s1_0_split
I1213 10:40:07.857024 10744 net.cpp:151] Top shape: 2 1024 24 78 (3833856)
I1213 10:40:07.857033 10744 net.cpp:151] Top shape: 2 1024 24 78 (3833856)
I1213 10:40:07.857039 10744 net.cpp:159] Memory required for data: 1274311040
I1213 10:40:07.857046 10744 layer_factory.hpp:77] Creating layer cvg/classifier
I1213 10:40:07.857062 10744 net.cpp:94] Creating Layer cvg/classifier
I1213 10:40:07.857070 10744 net.cpp:435] cvg/classifier <- pool5/drop_s1_pool5/drop_s1_0_split_0
I1213 10:40:07.857084 10744 net.cpp:409] cvg/classifier -> cvg/classifier
I1213 10:40:07.857426 10744 net.cpp:144] Setting up cvg/classifier
I1213 10:40:07.857444 10744 net.cpp:151] Top shape: 2 1 24 78 (3744)
I1213 10:40:07.857450 10744 net.cpp:159] Memory required for data: 1274326016
I1213 10:40:07.857461 10744 layer_factory.hpp:77] Creating layer coverage/sig
I1213 10:40:07.857475 10744 net.cpp:94] Creating Layer coverage/sig
I1213 10:40:07.857482 10744 net.cpp:435] coverage/sig <- cvg/classifier
I1213 10:40:07.857493 10744 net.cpp:409] coverage/sig -> coverage
I1213 10:40:07.857537 10744 net.cpp:144] Setting up coverage/sig
I1213 10:40:07.857549 10744 net.cpp:151] Top shape: 2 1 24 78 (3744)
I1213 10:40:07.857556 10744 net.cpp:159] Memory required for data: 1274340992
I1213 10:40:07.857563 10744 layer_factory.hpp:77] Creating layer bbox/regressor
I1213 10:40:07.857578 10744 net.cpp:94] Creating Layer bbox/regressor
I1213 10:40:07.857586 10744 net.cpp:435] bbox/regressor <- pool5/drop_s1_pool5/drop_s1_0_split_1
I1213 10:40:07.857599 10744 net.cpp:409] bbox/regressor -> bboxes
I1213 10:40:07.857962 10744 net.cpp:144] Setting up bbox/regressor
I1213 10:40:07.857978 10744 net.cpp:151] Top shape: 2 4 24 78 (14976)
I1213 10:40:07.857985 10744 net.cpp:159] Memory required for data: 1274400896
I1213 10:40:07.857997 10744 layer_factory.hpp:77] Creating layer bbox_mask
I1213 10:40:07.858012 10744 net.cpp:94] Creating Layer bbox_mask
I1213 10:40:07.858021 10744 net.cpp:435] bbox_mask <- bboxes
I1213 10:40:07.858029 10744 net.cpp:435] bbox_mask <- coverage-block
I1213 10:40:07.858041 10744 net.cpp:409] bbox_mask -> bboxes-masked
I1213 10:40:07.858084 10744 net.cpp:144] Setting up bbox_mask
I1213 10:40:07.858098 10744 net.cpp:151] Top shape: 2 4 24 78 (14976)
I1213 10:40:07.858105 10744 net.cpp:159] Memory required for data: 1274460800
I1213 10:40:07.858113 10744 layer_factory.hpp:77] Creating layer bbox-norm
I1213 10:40:07.858124 10744 net.cpp:94] Creating Layer bbox-norm
I1213 10:40:07.858131 10744 net.cpp:435] bbox-norm <- bboxes-masked
I1213 10:40:07.858140 10744 net.cpp:435] bbox-norm <- size-block_size-block_0_split_1
I1213 10:40:07.858151 10744 net.cpp:409] bbox-norm -> bboxes-masked-norm
I1213 10:40:07.858189 10744 net.cpp:144] Setting up bbox-norm
I1213 10:40:07.858218 10744 net.cpp:151] Top shape: 2 4 24 78 (14976)
I1213 10:40:07.858227 10744 net.cpp:159] Memory required for data: 1274520704
I1213 10:40:07.858233 10744 layer_factory.hpp:77] Creating layer bbox-obj-norm
I1213 10:40:07.858244 10744 net.cpp:94] Creating Layer bbox-obj-norm
I1213 10:40:07.858253 10744 net.cpp:435] bbox-obj-norm <- bboxes-masked-norm
I1213 10:40:07.858261 10744 net.cpp:435] bbox-obj-norm <- obj-block_obj-block_0_split_1
I1213 10:40:07.858273 10744 net.cpp:409] bbox-obj-norm -> bboxes-obj-masked-norm
I1213 10:40:07.858314 10744 net.cpp:144] Setting up bbox-obj-norm
I1213 10:40:07.858327 10744 net.cpp:151] Top shape: 2 4 24 78 (14976)
I1213 10:40:07.858335 10744 net.cpp:159] Memory required for data: 1274580608
I1213 10:40:07.858341 10744 layer_factory.hpp:77] Creating layer bbox_loss
I1213 10:40:07.858353 10744 net.cpp:94] Creating Layer bbox_loss
I1213 10:40:07.858361 10744 net.cpp:435] bbox_loss <- bboxes-obj-masked-norm
I1213 10:40:07.858371 10744 net.cpp:435] bbox_loss <- bbox-obj-label-norm
I1213 10:40:07.858381 10744 net.cpp:409] bbox_loss -> loss_bbox
…
I1213 10:40:07.867038 10744 net.cpp:52] Initializing net from parameters:
state {
phase: TEST
}
layer {
name: "val_data"
type: "Data"
top: "data"
include {
phase: TEST
}
transform_param {
mean_file: "/home/scu508/digits/digits/jobs/20161213-101330-681b/train_db/mean.binaryproto"
}
data_param {
source: "/home/scu508/digits/digits/jobs/20161213-101330-681b/val_db/features"
batch_size: 2
backend: LMDB
}
}
layer {
name: "val_label"
type: "Data"
top: "label"
include {
phase: TEST
}
data_param {
source: "/home/scu508/digits/digits/jobs/20161213-101330-681b/val_db/labels"
batch_size: 2
backend: LMDB
}
}
layer {
name: "val_transform"
type: "DetectNetTransformation"
bottom: "data"
bottom: "label"
top: "transformed_data"
top: "transformed_label"
include {
phase: TEST
}
transform_param {
mean_value: 127
}
detectnet_groundtruth_param {
stride: 16
scale_cvg: 0.4
gridbox_type: GRIDBOX_MIN
min_cvg_len: 20
coverage_type: RECTANGULAR
image_size_x: 1248
image_size_y: 384
obj_norm: true
crop_bboxes: false
object_class {
src: 1
dst: 0
}
}
}
layer {
name: "slice-label"
type: "Slice"
bottom: "transformed_label"
top: "foreground-label"
top: "bbox-label"
top: "size-label"
top: "obj-label"
top: "coverage-label"
slice_param {
slice_dim: 1
slice_point: 1
slice_point: 5
slice_point: 7
slice_point: 8
}
}
layer {
name: "coverage-block"
type: "Concat"
bottom: "foreground-label"
bottom: "foreground-label"
bottom: "foreground-label"
bottom: "foreground-label"
top: "coverage-block"
concat_param {
concat_dim: 1
}
}
layer {
name: "size-block"
type: "Concat"
bottom: "size-label"
bottom: "size-label"
top: "size-block"
concat_param {
concat_dim: 1
}
}
layer {
name: "obj-block"
type: "Concat"
bottom: "obj-label"
bottom: "obj-label"
bottom: "obj-label"
bottom: "obj-label"
top: "obj-block"
concat_param {
concat_dim: 1
}
}
layer {
name: "bb-label-norm"
type: "Eltwise"
bottom: "bbox-label"
bottom: "size-block"
top: "bbox-label-norm"
eltwise_param {
operation: PROD
}
}
layer {
name: "bb-obj-norm"
type: "Eltwise"
bottom: "bbox-label-norm"
bottom: "obj-block"
top: "bbox-obj-label-norm"
eltwise_param {
operation: PROD
}
}
layer {
name: "conv1/7x7_s2"
type: "Convolution"
bottom: "transformed_data"
top: "conv1/7x7_s2"
param {
lr_mult: 1
decay_mult: 1
}
param {
lr_mult: 2
decay_mult: 0
}
convolution_param {
num_output: 64
pad: 3
kernel_size: 7
stride: 2
weight_filler {
type: "xavier"
std: 0.1
}
bias_filler {
type: "constant"
value: 0.2
}
}
}
layer {
name: "conv1/relu_7x7"
type: "ReLU"
bottom: "conv1/7x7_s2"
top: "conv1/7x7_s2"
}
layer {
name: "pool1/3x3_s2"
type: "Pooling"
bottom: "conv1/7x7_s2"
top: "pool1/3x3_s2"
pooling_param {
pool: MAX
kernel_size: 3
stride: 2
}
}
layer {
name: "pool1/norm1"
type: "LRN"
bottom: "pool1/3x3_s2"
top: "pool1/norm1"
lrn_param {
local_size: 5
alpha: 0.0001
beta: 0.75
}
}
layer {
name: "conv2/3x3_reduce"
type: "Convolution"
bottom: "pool1/norm1"
top: "conv2/3x3_reduce"
param {
lr_mult: 1
decay_mult: 1
}
param {
lr_mult: 2
decay_mult: 0
}
convolution_param {
num_output: 64
kernel_size: 1
weight_filler {
type: "xavier"
std: 0.1
}
bias_filler {
type: "constant"
value: 0.2
}
}
}
layer {
name: "conv2/relu_3x3_reduce"
type: "ReLU"
bottom: "conv2/3x3_reduce"
top: "conv2/3x3_reduce"
}
layer {
name: "conv2/3x3"
type: "Convolution"
bottom: "conv2/3x3_reduce"
top: "conv2/3x3"
param {
lr_mult: 1
decay_mult: 1
}
param {
lr_mult: 2
decay_mult: 0
}
convolution_param {
num_output: 192
pad: 1
kernel_size: 3
weight_filler {
type: "xavier"
std: 0.03
}
bias_filler {
type: "constant"
value: 0.2
}
}
}
layer {
name: "conv2/relu_3x3"
type: "ReLU"
bottom: "conv2/3x3"
top: "conv2/3x3"
}
layer {
name: "conv2/norm2"
type: "LRN"
bottom: "conv2/3x3"
top: "conv2/norm2"
lrn_param {
local_size: 5
alpha: 0.0001
beta: 0.75
}
}
layer {
name: "pool2/3x3_s2"
type: "Pooling"
bottom: "conv2/norm2"
top: "pool2/3x3_s2"
pooling_param {
pool: MAX
kernel_size: 3
stride: 2
}
}
layer {
name: "inception_3a/1x1"
type: "Convolution"
bottom: "pool2/3x3_s2"
top: "inception_3a/1x1"
param {
lr_mult: 1
decay_mult: 1
}
param {
lr_mult: 2
decay_mult: 0
}
convolution_param {
num_output: 64
kernel_size: 1
weight_filler {
type: "xavier"
std: 0.03
}
bias_filler {
type: "constant"
value: 0.2
}
}
}
layer {
name: "inception_3a/relu_1x1"
type: "ReLU"
bottom: "inception_3a/1x1"
top: "inception_3a/1x1"
}
layer {
name: "inception_3a/3x3_reduce"
type: "Convolution"
bottom: "pool2/3x3_s2"
top: "inception_3a/3x3_reduce"
param {
lr_mult: 1
decay_mult: 1
}
param {
lr_mult: 2
decay_mult: 0
}
convolution_param {
num_output: 96
kernel_size: 1
weight_filler {
type: "xavier"
std: 0.09
}
bias_filler {
type: "constant"
value: 0.2
}
}
}
layer {
name: "inception_3a/relu_3x3_reduce"
type: "ReLU"
bottom: "inception_3a/3x3_reduce"
top: "inception_3a/3x3_reduce"
}
layer {
name: "inception_3a/3x3"
type: "Convolution"
bottom: "inception_3a/3x3_reduce"
top: "inception_3a/3x3"
param {
lr_mult: 1
decay_mult: 1
}
param {
lr_mult: 2
decay_mult: 0
}
convolution_param {
num_output: 128
pad: 1
kernel_size: 3
weight_filler {
type: "xavier"
std: 0.03
}
bias_filler {
type: "constant"
value: 0.2
}
}
}
layer {
name: "inception_3a/relu_3x3"
type: "ReLU"
bottom: "inception_3a/3x3"
top: "inception_3a/3x3"
}
layer {
name: "inception_3a/5x5_reduce"
type: "Convolution"
bottom: "pool2/3x3_s2"
top: "inception_3a/5x5_reduce"
param {
lr_mult: 1
decay_mult: 1
}
param {
lr_mult: 2
decay_mult: 0
}
convolution_param {
num_output: 16
kernel_size: 1
weight_filler {
type: "xavier"
std: 0.2
}
bias_filler {
type: "constant"
value: 0.2
}
}
}
layer {
name: "inception_3a/relu_5x5_reduce"
type: "ReLU"
bottom: "inception_3a/5x5_reduce"
top: "inception_3a/5x5_reduce"
}
layer {
name: "inception_3a/5x5"
type: "Convolution"
bottom: "inception_3a/5x5_reduce"
top: "inception_3a/5x5"
param {
lr_mult: 1
decay_mult: 1
}
param {
lr_mult: 2
decay_mult: 0
}
convolution_param {
num_output: 32
pad: 2
kernel_size: 5
weight_filler {
type: "xavier"
std: 0.03
}
bias_filler {
type: "constant"
value: 0.2
}
}
}
layer {
name: "inception_3a/relu_5x5"
type: "ReLU"
bottom: "inception_3a/5x5"
top: "inception_3a/5x5"
}
layer {
name: "inception_3a/pool"
type: "Pooling"
bottom: "pool2/3x3_s2"
top: "inception_3a/pool"
pooling_param {
pool: MAX
kernel_size: 3
stride: 1
pad: 1
}
}
layer {
name: "inception_3a/pool_proj"
type: "Convolution"
bottom: "inception_3a/pool"
top: "inception_3a/pool_proj"
param {
lr_mult: 1
decay_mult: 1
}
param {
lr_mult: 2
decay_mult: 0
}
convolution_param {
num_output: 32
kernel_size: 1
weight_filler {
type: "xavier"
std: 0.1
}
bias_filler {
type: "constant"
value: 0.2
}
}
}
layer {
name: "inception_3a/relu_pool_proj"
type: "ReLU"
bottom: "inception_3a/pool_proj"
top: "inception_3a/pool_proj"
}
layer {
name: "inception_3a/output"
type: "Concat"
bottom: "inception_3a/1x1"
bottom: "inception_3a/3x3"
bottom: "inception_3a/5x5"
bottom: "inception_3a/pool_proj"
top: "inception_3a/output"
}
layer {
name: "inception_3b/1x1"
type: "Convolution"
bottom: "inception_3a/output"
top: "inception_3b/1x1"
param {
lr_mult: 1
decay_mult: 1
}
param {
lr_mult: 2
decay_mult: 0
}
convolution_param {
num_output: 128
kernel_size: 1
weight_filler {
type: "xavier"
std: 0.03
}
bias_filler {
type: "constant"
value: 0.2
}
}
}
layer {
name: "inception_3b/relu_1x1"
type: "ReLU"
bottom: "inception_3b/1x1"
top: "inception_3b/1x1"
}
layer {
name: "inception_3b/3x3_reduce"
type: "Convolution"
bottom: "inception_3a/output"
top: "inception_3b/3x3_reduce"
param {
lr_mult: 1
decay_mult: 1
}
param {
lr_mult: 2
decay_mult: 0
}
convolution_param {
num_output: 128
kernel_size: 1
weight_filler {
type: "xavier"
std: 0.09
}
bias_filler {
type: "constant"
value: 0.2
}
}
}
layer {
name: "inception_3b/relu_3x3_reduce"
type: "ReLU"
bottom: "inception_3b/3x3_reduce"
top: "inception_3b/3x3_reduce"
}
layer {
name: "inception_3b/3x3"
type: "Convolution"
bottom: "inception_3b/3x3_reduce"
top: "inception_3b/3x3"
param {
lr_mult: 1
decay_mult: 1
}
param {
lr_mult: 2
decay_mult: 0
}
convolution_param {
num_output: 192
pad: 1
kernel_size: 3
weight_filler {
type: "xavier"
std: 0.03
}
bias_filler {
type: "constant"
value: 0.2
}
}
}
layer {
name: "inception_3b/relu_3x3"
type: "ReLU"
bottom: "inception_3b/3x3"
top: "inception_3b/3x3"
}
layer {
name: "inception_3b/5x5_reduce"
type: "Convolution"
bottom: "inception_3a/output"
top: "inception_3b/5x5_reduce"
param {
lr_mult: 1
decay_mult: 1
}
param {
lr_mult: 2
decay_mult: 0
}
convolution_param {
num_output: 32
kernel_size: 1
weight_filler {
type: "xavier"
std: 0.2
}
bias_filler {
type: "constant"
value: 0.2
}
}
}
layer {
name: "inception_3b/relu_5x5_reduce"
type: "ReLU"
bottom: "inception_3b/5x5_reduce"
top: "inception_3b/5x5_reduce"
}
layer {
name: "inception_3b/5x5"
type: "Convolution"
bottom: "inception_3b/5x5_reduce"
top: "inception_3b/5x5"
param {
lr_mult: 1
decay_mult: 1
}
param {
lr_mult: 2
decay_mult: 0
}
convolution_param {
num_output: 96
pad: 2
kernel_size: 5
weight_filler {
type: "xavier"
std: 0.03
}
bias_filler {
type: "constant"
value: 0.2
}
}
}
layer {
name: "inception_3b/relu_5x5"
type: "ReLU"
bottom: "inception_3b/5x5"
top: "inception_3b/5x5"
}
layer {
name: "inception_3b/pool"
type: "Pooling"
bottom: "inception_3a/output"
top: "inception_3b/pool"
pooling_param {
pool: MAX
kernel_size: 3
stride: 1
pad: 1
}
}
layer {
name: "inception_3b/pool_proj"
type: "Convolution"
bottom: "inception_3b/pool"
top: "inception_3b/pool_proj"
param {
lr_mult: 1
decay_mult: 1
}
param {
lr_mult: 2
decay_mult: 0
}
convolution_param {
num_output: 64
kernel_size: 1
weight_filler {
type: "xavier"
std: 0.1
}
bias_filler {
type: "constant"
value: 0.2
}
}
}
layer {
name: "inception_3b/relu_pool_proj"
type: "ReLU"
bottom: "inception_3b/pool_proj"
top: "inception_3b/pool_proj"
}
layer {
name: "inception_3b/output"
type: "Concat"
bottom: "inception_3b/1x1"
bottom: "inception_3b/3x3"
bottom: "inception_3b/5x5"
bottom: "inception_3b/pool_proj"
top: "inception_3b/output"
}
layer {
name: "pool3/3x3_s2"
type: "Pooling"
bottom: "inception_3b/output"
top: "pool3/3x3_s2"
pooling_param {
pool: MAX
kernel_size: 3
stride: 2
}
}
layer {
name: "inception_4a/1x1"
type: "Convolution"
bottom: "pool3/3x3_s2"
top: "inception_4a/1x1"
param {
lr_mult: 1
decay_mult: 1
}
param {
lr_mult: 2
decay_mult: 0
}
convolution_param {
num_output: 192
kernel_size: 1
weight_filler {
type: "xavier"
std: 0.03
}
bias_filler {
type: "constant"
value: 0.2
}
}
}
layer {
name: "inception_4a/relu_1x1"
type: "ReLU"
bottom: "inception_4a/1x1"
top: "inception_4a/1x1"
}
layer {
name: "inception_4a/3x3_reduce"
type: "Convolution"
bottom: "pool3/3x3_s2"
top: "inception_4a/3x3_reduce"
param {
lr_mult: 1
decay_mult: 1
}
param {
lr_mult: 2
decay_mult: 0
}
convolution_param {
num_output: 96
kernel_size: 1
weight_filler {
type: "xavier"
std: 0.09
}
bias_filler {
type: "constant"
value: 0.2
}
}
}
layer {
name: "inception_4a/relu_3x3_reduce"
type: "ReLU"
bottom: "inception_4a/3x3_reduce"
top: "inception_4a/3x3_reduce"
}
layer {
name: "inception_4a/3x3"
type: "Convolution"
bottom: "inception_4a/3x3_reduce"
top: "inception_4a/3x3"
param {
lr_mult: 1
decay_mult: 1
}
param {
lr_mult: 2
decay_mult: 0
}
convolution_param {
num_output: 208
pad: 1
kernel_size: 3
weight_filler {
type: "xavier"
std: 0.03
}
bias_filler {
type: "constant"
value: 0.2
}
}
}
layer {
name: "inception_4a/relu_3x3"
type: "ReLU"
bottom: "inception_4a/3x3"
top: "inception_4a/3x3"
}
layer {
name: "inception_4a/5x5_reduce"
type: "Convolution"
bottom: "pool3/3x3_s2"
top: "inception_4a/5x5_reduce"
param {
lr_mult: 1
decay_mult: 1
}
param {
lr_mult: 2
decay_mult: 0
}
convolution_param {
num_output: 16
kernel_size: 1
weight_filler {
type: "xavier"
std: 0.2
}
bias_filler {
type: "constant"
value: 0.2
}
}
}
layer {
name: "inception_4a/relu_5x5_reduce"
type: "ReLU"
bottom: "inception_4a/5x5_reduce"
top: "inception_4a/5x5_reduce"
}
layer {
name: "inception_4a/5x5"
type: "Convolution"
bottom: "inception_4a/5x5_reduce"
top: "inception_4a/5x5"
param {
lr_mult: 1
decay_mult: 1
}
param {
lr_mult: 2
decay_mult: 0
}
convolution_param {
num_output: 48
pad: 2
kernel_size: 5
weight_filler {
type: "xavier"
std: 0.03
}
bias_filler {
type: "constant"
value: 0.2
}
}
}
layer {
name: "inception_4a/relu_5x5"
type: "ReLU"
bottom: "inception_4a/5x5"
top: "inception_4a/5x5"
}
layer {
name: "inception_4a/pool"
type: "Pooling"
bottom: "pool3/3x3_s2"
top: "inception_4a/pool"
pooling_param {
pool: MAX
kernel_size: 3
stride: 1
pad: 1
}
}
layer {
name: "inception_4a/pool_proj"
type: "Convolution"
bottom: "inception_4a/pool"
top: "inception_4a/pool_proj"
param {
lr_mult: 1
decay_mult: 1
}
param {
lr_mult: 2
decay_mult: 0
}
convolution_param {
num_output: 64
kernel_size: 1
weight_filler {
type: "xavier"
std: 0.1
}
bias_filler {
type: "constant"
value: 0.2
}
}
}
layer {
name: "inception_4a/relu_pool_proj"
type: "ReLU"
bottom: "inception_4a/pool_proj"
top: "inception_4a/pool_proj"
}
layer {
name: "inception_4a/output"
type: "Concat"
bottom: "inception_4a/1x1"
bottom: "inception_4a/3x3"
bottom: "inception_4a/5x5"
bottom: "inception_4a/pool_proj"
top: "inception_4a/output"
}
layer {
name: "inception_4b/1x1"
type: "Convolution"
bottom: "inception_4a/output"
top: "inception_4b/1x1"
param {
lr_mult: 1
decay_mult: 1
}
param {
lr_mult: 2
decay_mult: 0
}
convolution_param {
num_output: 160
kernel_size: 1
weight_filler {
type: "xavier"
std: 0.03
}
bias_filler {
type: "constant"
value: 0.2
}
}
}
layer {
name: "inception_4b/relu_1x1"
type: "ReLU"
bottom: "inception_4b/1x1"
top: "inception_4b/1x1"
}
layer {
name: "inception_4b/3x3_reduce"
type: "Convolution"
bottom: "inception_4a/output"
top: "inception_4b/3x3_reduce"
param {
lr_mult: 1
decay_mult: 1
}
param {
lr_mult: 2
decay_mult: 0
}
convolution_param {
num_output: 112
kernel_size: 1
weight_filler {
type: "xavier"
std: 0.09
}
bias_filler {
type: "constant"
value: 0.2
}
}
}
layer {
name: "inception_4b/relu_3x3_reduce"
type: "ReLU"
bottom: "inception_4b/3x3_reduce"
top: "inception_4b/3x3_reduce"
}
layer {
name: "inception_4b/3x3"
type: "Convolution"
bottom: "inception_4b/3x3_reduce"
top: "inception_4b/3x3"
param {
lr_mult: 1
decay_mult: 1
}
param {
lr_mult: 2
decay_mult: 0
}
convolution_param {
num_output: 224
pad: 1
kernel_size: 3
weight_filler {
type: "xavier"
std: 0.03
}
bias_filler {
type: "constant"
value: 0.2
}
}
}
layer {
name: "inception_4b/relu_3x3"
type: "ReLU"
bottom: "inception_4b/3x3"
top: "inception_4b/3x3"
}
layer {
name: "inception_4b/5x5_reduce"
type: "Convolution"
bottom: "inception_4a/output"
top: "inception_4b/5x5_reduce"
param {
lr_mult: 1
decay_mult: 1
}
param {
lr_mult: 2
decay_mult: 0
}
convolution_param {
num_output: 24
kernel_size: 1
weight_filler {
type: "xavier"
std: 0.2
}
bias_filler {
type: "constant"
value: 0.2
}
}
}
layer {
name: "inception_4b/relu_5x5_reduce"
type: "ReLU"
bottom: "inception_4b/5x5_reduce"
top: "inception_4b/5x5_reduce"
}
layer {
name: "inception_4b/5x5"
type: "Convolution"
bottom: "inception_4b/5x5_reduce"
top: "inception_4b/5x5"
param {
lr_mult: 1
decay_mult: 1
}
param {
lr_mult: 2
decay_mult: 0
}
convolution_param {
num_output: 64
pad: 2
kernel_size: 5
weight_filler {
type: "xavier"
std: 0.03
}
bias_filler {
type: "constant"
value: 0.2
}
}
}
layer {
name: "inception_4b/relu_5x5"
type: "ReLU"
bottom: "inception_4b/5x5"
top: "inception_4b/5x5"
}
layer {
name: "inception_4b/pool"
type: "Pooling"
bottom: "inception_4a/output"
top: "inception_4b/pool"
pooling_param {
pool: MAX
kernel_size: 3
stride: 1
pad: 1
}
}
layer {
name: "inception_4b/pool_proj"
type: "Convolution"
bottom: "inception_4b/pool"
top: "inception_4b/pool_proj"
param {
lr_mult: 1
decay_mult: 1
}
param {
lr_mult: 2
decay_mult: 0
}
convolution_param {
num_output: 64
kernel_size: 1
weight_filler {
type: "xavier"
std: 0.1
}
bias_filler {
type: "constant"
value: 0.2
}
}
}
layer {
name: "inception_4b/relu_pool_proj"
type: "ReLU"
bottom: "inception_4b/pool_proj"
top: "inception_4b/pool_proj"
}
layer {
name: "inception_4b/output"
type: "Concat"
bottom: "inception_4b/1x1"
bottom: "inception_4b/3x3"
bottom: "inception_4b/5x5"
bottom: "inception_4b/pool_proj"
top: "inception_4b/output"
}
layer {
name: "inception_4c/1x1"
type: "Convolution"
bottom: "inception_4b/output"
top: "inception_4c/1x1"
param {
lr_mult: 1
decay_mult: 1
}
param {
lr_mult: 2
decay_mult: 0
}
convolution_param {
num_output: 128
kernel_size: 1
weight_filler {
type: "xavier"
std: 0.03
}
bias_filler {
type: "constant"
value: 0.2
}
}
}
layer {
name: "inception_4c/relu_1x1"
type: "ReLU"
…
I1213 10:40:08.032382 10744 net.cpp:94] Creating Layer inception_4c/pool_proj
I1213 10:40:08.032392 10744 net.cpp:435] inception_4c/pool_proj <- inception_4c/pool
I1213 10:40:08.032403 10744 net.cpp:409] inception_4c/pool_proj -> inception_4c/pool_proj
I1213 10:40:08.032992 10744 net.cpp:144] Setting up inception_4c/pool_proj
I1213 10:40:08.033010 10744 net.cpp:151] Top shape: 2 64 24 78 (239616)
I1213 10:40:08.033016 10744 net.cpp:159] Memory required for data: 848902016
I1213 10:40:08.033041 10744 layer_factory.hpp:77] Creating layer inception_4c/relu_pool_proj
I1213 10:40:08.033053 10744 net.cpp:94] Creating Layer inception_4c/relu_pool_proj
I1213 10:40:08.033062 10744 net.cpp:435] inception_4c/relu_pool_proj <- inception_4c/pool_proj
I1213 10:40:08.033074 10744 net.cpp:396] inception_4c/relu_pool_proj -> inception_4c/pool_proj (in-place)
I1213 10:40:08.033088 10744 net.cpp:144] Setting up inception_4c/relu_pool_proj
I1213 10:40:08.033098 10744 net.cpp:151] Top shape: 2 64 24 78 (239616)
I1213 10:40:08.033105 10744 net.cpp:159] Memory required for data: 849860480
I1213 10:40:08.033112 10744 layer_factory.hpp:77] Creating layer inception_4c/output
I1213 10:40:08.033123 10744 net.cpp:94] Creating Layer inception_4c/output
I1213 10:40:08.033130 10744 net.cpp:435] inception_4c/output <- inception_4c/1x1
I1213 10:40:08.033139 10744 net.cpp:435] inception_4c/output <- inception_4c/3x3
I1213 10:40:08.033149 10744 net.cpp:435] inception_4c/output <- inception_4c/5x5
I1213 10:40:08.033156 10744 net.cpp:435] inception_4c/output <- inception_4c/pool_proj
I1213 10:40:08.033166 10744 net.cpp:409] inception_4c/output -> inception_4c/output
I1213 10:40:08.033210 10744 net.cpp:144] Setting up inception_4c/output
I1213 10:40:08.033239 10744 net.cpp:151] Top shape: 2 512 24 78 (1916928)
I1213 10:40:08.033247 10744 net.cpp:159] Memory required for data: 857528192
I1213 10:40:08.033255 10744 layer_factory.hpp:77] Creating layer inception_4c/output_inception_4c/output_0_split
I1213 10:40:08.033267 10744 net.cpp:94] Creating Layer inception_4c/output_inception_4c/output_0_split
I1213 10:40:08.033274 10744 net.cpp:435] inception_4c/output_inception_4c/output_0_split <- inception_4c/output
I1213 10:40:08.033287 10744 net.cpp:409] inception_4c/output_inception_4c/output_0_split -> inception_4c/output_inception_4c/output_0_split_0
I1213 10:40:08.033298 10744 net.cpp:409] inception_4c/output_inception_4c/output_0_split -> inception_4c/output_inception_4c/output_0_split_1
I1213 10:40:08.033311 10744 net.cpp:409] inception_4c/output_inception_4c/output_0_split -> inception_4c/output_inception_4c/output_0_split_2
I1213 10:40:08.033324 10744 net.cpp:409] inception_4c/output_inception_4c/output_0_split -> inception_4c/output_inception_4c/output_0_split_3
I1213 10:40:08.033414 10744 net.cpp:144] Setting up inception_4c/output_inception_4c/output_0_split
I1213 10:40:08.033428 10744 net.cpp:151] Top shape: 2 512 24 78 (1916928)
I1213 10:40:08.033437 10744 net.cpp:151] Top shape: 2 512 24 78 (1916928)
I1213 10:40:08.033447 10744 net.cpp:151] Top shape: 2 512 24 78 (1916928)
I1213 10:40:08.033454 10744 net.cpp:151] Top shape: 2 512 24 78 (1916928)
I1213 10:40:08.033462 10744 net.cpp:159] Memory required for data: 888199040
I1213 10:40:08.033468 10744 layer_factory.hpp:77] Creating layer inception_4d/1x1
I1213 10:40:08.033483 10744 net.cpp:94] Creating Layer inception_4d/1x1
I1213 10:40:08.033493 10744 net.cpp:435] inception_4d/1x1 <- inception_4c/output_inception_4c/output_0_split_0
I1213 10:40:08.033505 10744 net.cpp:409] inception_4d/1x1 -> inception_4d/1x1
I1213 10:40:08.034277 10744 net.cpp:144] Setting up inception_4d/1x1
I1213 10:40:08.034294 10744 net.cpp:151] Top shape: 2 112 24 78 (419328)
I1213 10:40:08.034301 10744 net.cpp:159] Memory required for data: 889876352
I1213 10:40:08.034312 10744 layer_factory.hpp:77] Creating layer inception_4d/relu_1x1
I1213 10:40:08.034324 10744 net.cpp:94] Creating Layer inception_4d/relu_1x1
I1213 10:40:08.034332 10744 net.cpp:435] inception_4d/relu_1x1 <- inception_4d/1x1
I1213 10:40:08.034343 10744 net.cpp:396] inception_4d/relu_1x1 -> inception_4d/1x1 (in-place)
I1213 10:40:08.034355 10744 net.cpp:144] Setting up inception_4d/relu_1x1
I1213 10:40:08.034364 10744 net.cpp:151] Top shape: 2 112 24 78 (419328)
I1213 10:40:08.034371 10744 net.cpp:159] Memory required for data: 891553664
I1213 10:40:08.034379 10744 layer_factory.hpp:77] Creating layer inception_4d/3x3_reduce
I1213 10:40:08.034394 10744 net.cpp:94] Creating Layer inception_4d/3x3_reduce
I1213 10:40:08.034411 10744 net.cpp:435] inception_4d/3x3_reduce <- inception_4c/output_inception_4c/output_0_split_1
I1213 10:40:08.034425 10744 net.cpp:409] inception_4d/3x3_reduce -> inception_4d/3x3_reduce
I1213 10:40:08.035298 10744 net.cpp:144] Setting up inception_4d/3x3_reduce
I1213 10:40:08.035315 10744 net.cpp:151] Top shape: 2 144 24 78 (539136)
I1213 10:40:08.035322 10744 net.cpp:159] Memory required for data: 893710208
I1213 10:40:08.035334 10744 layer_factory.hpp:77] Creating layer inception_4d/relu_3x3_reduce
I1213 10:40:08.035346 10744 net.cpp:94] Creating Layer inception_4d/relu_3x3_reduce
I1213 10:40:08.035354 10744 net.cpp:435] inception_4d/relu_3x3_reduce <- inception_4d/3x3_reduce
I1213 10:40:08.035364 10744 net.cpp:396] inception_4d/relu_3x3_reduce -> inception_4d/3x3_reduce (in-place)
I1213 10:40:08.035377 10744 net.cpp:144] Setting up inception_4d/relu_3x3_reduce
I1213 10:40:08.035387 10744 net.cpp:151] Top shape: 2 144 24 78 (539136)
I1213 10:40:08.035393 10744 net.cpp:159] Memory required for data: 895866752
I1213 10:40:08.035400 10744 layer_factory.hpp:77] Creating layer inception_4d/3x3
I1213 10:40:08.035415 10744 net.cpp:94] Creating Layer inception_4d/3x3
I1213 10:40:08.035423 10744 net.cpp:435] inception_4d/3x3 <- inception_4d/3x3_reduce
I1213 10:40:08.035451 10744 net.cpp:409] inception_4d/3x3 -> inception_4d/3x3
I1213 10:40:08.039767 10744 net.cpp:144] Setting up inception_4d/3x3
I1213 10:40:08.039788 10744 net.cpp:151] Top shape: 2 288 24 78 (1078272)
I1213 10:40:08.039795 10744 net.cpp:159] Memory required for data: 900179840
I1213 10:40:08.039808 10744 layer_factory.hpp:77] Creating layer inception_4d/relu_3x3
I1213 10:40:08.039820 10744 net.cpp:94] Creating Layer inception_4d/relu_3x3
I1213 10:40:08.039829 10744 net.cpp:435] inception_4d/relu_3x3 <- inception_4d/3x3
I1213 10:40:08.039839 10744 net.cpp:396] inception_4d/relu_3x3 -> inception_4d/3x3 (in-place)
I1213 10:40:08.039855 10744 net.cpp:144] Setting up inception_4d/relu_3x3
I1213 10:40:08.039865 10744 net.cpp:151] Top shape: 2 288 24 78 (1078272)
I1213 10:40:08.039871 10744 net.cpp:159] Memory required for data: 904492928
I1213 10:40:08.039878 10744 layer_factory.hpp:77] Creating layer inception_4d/5x5_reduce
I1213 10:40:08.039893 10744 net.cpp:94] Creating Layer inception_4d/5x5_reduce
I1213 10:40:08.039902 10744 net.cpp:435] inception_4d/5x5_reduce <- inception_4c/output_inception_4c/output_0_split_2
I1213 10:40:08.039916 10744 net.cpp:409] inception_4d/5x5_reduce -> inception_4d/5x5_reduce
I1213 10:40:08.040410 10744 net.cpp:144] Setting up inception_4d/5x5_reduce
I1213 10:40:08.040426 10744 net.cpp:151] Top shape: 2 32 24 78 (119808)
I1213 10:40:08.040433 10744 net.cpp:159] Memory required for data: 904972160
I1213 10:40:08.040446 10744 layer_factory.hpp:77] Creating layer inception_4d/relu_5x5_reduce
I1213 10:40:08.040457 10744 net.cpp:94] Creating Layer inception_4d/relu_5x5_reduce
I1213 10:40:08.040464 10744 net.cpp:435] inception_4d/relu_5x5_reduce <- inception_4d/5x5_reduce
I1213 10:40:08.040475 10744 net.cpp:396] inception_4d/relu_5x5_reduce -> inception_4d/5x5_reduce (in-place)
I1213 10:40:08.040488 10744 net.cpp:144] Setting up inception_4d/relu_5x5_reduce
I1213 10:40:08.040498 10744 net.cpp:151] Top shape: 2 32 24 78 (119808)
I1213 10:40:08.040505 10744 net.cpp:159] Memory required for data: 905451392
I1213 10:40:08.040511 10744 layer_factory.hpp:77] Creating layer inception_4d/5x5
I1213 10:40:08.040527 10744 net.cpp:94] Creating Layer inception_4d/5x5
I1213 10:40:08.040535 10744 net.cpp:435] inception_4d/5x5 <- inception_4d/5x5_reduce
I1213 10:40:08.040546 10744 net.cpp:409] inception_4d/5x5 -> inception_4d/5x5
I1213 10:40:08.041275 10744 net.cpp:144] Setting up inception_4d/5x5
I1213 10:40:08.041292 10744 net.cpp:151] Top shape: 2 64 24 78 (239616)
I1213 10:40:08.041299 10744 net.cpp:159] Memory required for data: 906409856
I1213 10:40:08.041311 10744 layer_factory.hpp:77] Creating layer inception_4d/relu_5x5
I1213 10:40:08.041322 10744 net.cpp:94] Creating Layer inception_4d/relu_5x5
I1213 10:40:08.041332 10744 net.cpp:435] inception_4d/relu_5x5 <- inception_4d/5x5
I1213 10:40:08.041342 10744 net.cpp:396] inception_4d/relu_5x5 -> inception_4d/5x5 (in-place)
I1213 10:40:08.041354 10744 net.cpp:144] Setting up inception_4d/relu_5x5
I1213 10:40:08.041363 10744 net.cpp:151] Top shape: 2 64 24 78 (239616)
I1213 10:40:08.041370 10744 net.cpp:159] Memory required for data: 907368320
I1213 10:40:08.041376 10744 layer_factory.hpp:77] Creating layer inception_4d/pool
I1213 10:40:08.041388 10744 net.cpp:94] Creating Layer inception_4d/pool
I1213 10:40:08.041396 10744 net.cpp:435] inception_4d/pool <- inception_4c/output_inception_4c/output_0_split_3
I1213 10:40:08.041407 10744 net.cpp:409] inception_4d/pool -> inception_4d/pool
I1213 10:40:08.041472 10744 net.cpp:144] Setting up inception_4d/pool
I1213 10:40:08.041486 10744 net.cpp:151] Top shape: 2 512 24 78 (1916928)
I1213 10:40:08.041493 10744 net.cpp:159] Memory required for data: 915036032
I1213 10:40:08.041501 10744 layer_factory.hpp:77] Creating layer inception_4d/pool_proj
I1213 10:40:08.041515 10744 net.cpp:94] Creating Layer inception_4d/pool_proj
I1213 10:40:08.041523 10744 net.cpp:435] inception_4d/pool_proj <- inception_4d/pool
I1213 10:40:08.041535 10744 net.cpp:409] inception_4d/pool_proj -> inception_4d/pool_proj
I1213 10:40:08.042155 10744 net.cpp:144] Setting up inception_4d/pool_proj
I1213 10:40:08.042173 10744 net.cpp:151] Top shape: 2 64 24 78 (239616)
I1213 10:40:08.042181 10744 net.cpp:159] Memory required for data: 915994496
I1213 10:40:08.042191 10744 layer_factory.hpp:77] Creating layer inception_4d/relu_pool_proj
I1213 10:40:08.042202 10744 net.cpp:94] Creating Layer inception_4d/relu_pool_proj
I1213 10:40:08.042212 10744 net.cpp:435] inception_4d/relu_pool_proj <- inception_4d/pool_proj
I1213 10:40:08.042222 10744 net.cpp:396] inception_4d/relu_pool_proj -> inception_4d/pool_proj (in-place)
I1213 10:40:08.042234 10744 net.cpp:144] Setting up inception_4d/relu_pool_proj
I1213 10:40:08.042244 10744 net.cpp:151] Top shape: 2 64 24 78 (239616)
I1213 10:40:08.042251 10744 net.cpp:159] Memory required for data: 916952960
I1213 10:40:08.042258 10744 layer_factory.hpp:77] Creating layer inception_4d/output
I1213 10:40:08.042268 10744 net.cpp:94] Creating Layer inception_4d/output
I1213 10:40:08.042276 10744 net.cpp:435] inception_4d/output <- inception_4d/1x1
I1213 10:40:08.042285 10744 net.cpp:435] inception_4d/output <- inception_4d/3x3
I1213 10:40:08.042294 10744 net.cpp:435] inception_4d/output <- inception_4d/5x5
I1213 10:40:08.042301 10744 net.cpp:435] inception_4d/output <- inception_4d/pool_proj
I1213 10:40:08.042311 10744 net.cpp:409] inception_4d/output -> inception_4d/output
I1213 10:40:08.042356 10744 net.cpp:144] Setting up inception_4d/output
I1213 10:40:08.042369 10744 net.cpp:151] Top shape: 2 528 24 78 (1976832)
I1213 10:40:08.042376 10744 net.cpp:159] Memory required for data: 924860288
I1213 10:40:08.042383 10744 layer_factory.hpp:77] Creating layer inception_4d/output_inception_4d/output_0_split
I1213 10:40:08.042402 10744 net.cpp:94] Creating Layer inception_4d/output_inception_4d/output_0_split
I1213 10:40:08.042412 10744 net.cpp:435] inception_4d/output_inception_4d/output_0_split <- inception_4d/output
I1213 10:40:08.042423 10744 net.cpp:409] inception_4d/output_inception_4d/output_0_split -> inception_4d/output_inception_4d/output_0_split_0
I1213 10:40:08.042435 10744 net.cpp:409] inception_4d/output_inception_4d/output_0_split -> inception_4d/output_inception_4d/output_0_split_1
I1213 10:40:08.042448 10744 net.cpp:409] inception_4d/output_inception_4d/output_0_split -> inception_4d/output_inception_4d/output_0_split_2
I1213 10:40:08.042460 10744 net.cpp:409] inception_4d/output_inception_4d/output_0_split -> inception_4d/output_inception_4d/output_0_split_3
I1213 10:40:08.042551 10744 net.cpp:144] Setting up inception_4d/output_inception_4d/output_0_split
I1213 10:40:08.042564 10744 net.cpp:151] Top shape: 2 528 24 78 (1976832)
I1213 10:40:08.042573 10744 net.cpp:151] Top shape: 2 528 24 78 (1976832)
I1213 10:40:08.042582 10744 net.cpp:151] Top shape: 2 528 24 78 (1976832)
I1213 10:40:08.042590 10744 net.cpp:151] Top shape: 2 528 24 78 (1976832)
I1213 10:40:08.042598 10744 net.cpp:159] Memory required for data: 956489600
I1213 10:40:08.042605 10744 layer_factory.hpp:77] Creating layer inception_4e/1x1
I1213 10:40:08.042621 10744 net.cpp:94] Creating Layer inception_4e/1x1
I1213 10:40:08.042629 10744 net.cpp:435] inception_4e/1x1 <- inception_4d/output_inception_4d/output_0_split_0
I1213 10:40:08.042642 10744 net.cpp:409] inception_4e/1x1 -> inception_4e/1x1
I1213 10:40:08.043936 10744 net.cpp:144] Setting up inception_4e/1x1
I1213 10:40:08.043952 10744 net.cpp:151] Top shape: 2 256 24 78 (958464)
I1213 10:40:08.043959 10744 net.cpp:159] Memory required for data: 960323456
I1213 10:40:08.043970 10744 layer_factory.hpp:77] Creating layer inception_4e/relu_1x1
I1213 10:40:08.043982 10744 net.cpp:94] Creating Layer inception_4e/relu_1x1
I1213 10:40:08.043990 10744 net.cpp:435] inception_4e/relu_1x1 <- inception_4e/1x1
I1213 10:40:08.044000 10744 net.cpp:396] inception_4e/relu_1x1 -> inception_4e/1x1 (in-place)
I1213 10:40:08.044013 10744 net.cpp:144] Setting up inception_4e/relu_1x1
I1213 10:40:08.044023 10744 net.cpp:151] Top shape: 2 256 24 78 (958464)
I1213 10:40:08.044029 10744 net.cpp:159] Memory required for data: 964157312
I1213 10:40:08.044052 10744 layer_factory.hpp:77] Creating layer inception_4e/3x3_reduce
I1213 10:40:08.044070 10744 net.cpp:94] Creating Layer inception_4e/3x3_reduce
I1213 10:40:08.044077 10744 net.cpp:435] inception_4e/3x3_reduce <- inception_4d/output_inception_4d/output_0_split_1
I1213 10:40:08.044090 10744 net.cpp:409] inception_4e/3x3_reduce -> inception_4e/3x3_reduce
I1213 10:40:08.045053 10744 net.cpp:144] Setting up inception_4e/3x3_reduce
I1213 10:40:08.045069 10744 net.cpp:151] Top shape: 2 160 24 78 (599040)
I1213 10:40:08.045076 10744 net.cpp:159] Memory required for data: 966553472
I1213 10:40:08.045089 10744 layer_factory.hpp:77] Creating layer inception_4e/relu_3x3_reduce
I1213 10:40:08.045099 10744 net.cpp:94] Creating Layer inception_4e/relu_3x3_reduce
I1213 10:40:08.045109 10744 net.cpp:435] inception_4e/relu_3x3_reduce <- inception_4e/3x3_reduce
I1213 10:40:08.045119 10744 net.cpp:396] inception_4e/relu_3x3_reduce -> inception_4e/3x3_reduce (in-place)
I1213 10:40:08.045131 10744 net.cpp:144] Setting up inception_4e/relu_3x3_reduce
I1213 10:40:08.045141 10744 net.cpp:151] Top shape: 2 160 24 78 (599040)
I1213 10:40:08.045147 10744 net.cpp:159] Memory required for data: 968949632
I1213 10:40:08.045155 10744 layer_factory.hpp:77] Creating layer inception_4e/3x3
I1213 10:40:08.045168 10744 net.cpp:94] Creating Layer inception_4e/3x3
I1213 10:40:08.045177 10744 net.cpp:435] inception_4e/3x3 <- inception_4e/3x3_reduce
I1213 10:40:08.045189 10744 net.cpp:409] inception_4e/3x3 -> inception_4e/3x3
I1213 10:40:08.052628 10744 net.cpp:144] Setting up inception_4e/3x3
I1213 10:40:08.052655 10744 net.cpp:151] Top shape: 2 320 24 78 (1198080)
I1213 10:40:08.052664 10744 net.cpp:159] Memory required for data: 973741952
I1213 10:40:08.052677 10744 layer_factory.hpp:77] Creating layer inception_4e/relu_3x3
I1213 10:40:08.052690 10744 net.cpp:94] Creating Layer inception_4e/relu_3x3
I1213 10:40:08.052700 10744 net.cpp:435] inception_4e/relu_3x3 <- inception_4e/3x3
I1213 10:40:08.052711 10744 net.cpp:396] inception_4e/relu_3x3 -> inception_4e/3x3 (in-place)
I1213 10:40:08.052726 10744 net.cpp:144] Setting up inception_4e/relu_3x3
I1213 10:40:08.052736 10744 net.cpp:151] Top shape: 2 320 24 78 (1198080)
I1213 10:40:08.052743 10744 net.cpp:159] Memory required for data: 978534272
I1213 10:40:08.052750 10744 layer_factory.hpp:77] Creating layer inception_4e/5x5_reduce
I1213 10:40:08.052767 10744 net.cpp:94] Creating Layer inception_4e/5x5_reduce
I1213 10:40:08.052777 10744 net.cpp:435] inception_4e/5x5_reduce <- inception_4d/output_inception_4d/output_0_split_2
I1213 10:40:08.052789 10744 net.cpp:409] inception_4e/5x5_reduce -> inception_4e/5x5_reduce
I1213 10:40:08.053288 10744 net.cpp:144] Setting up inception_4e/5x5_reduce
I1213 10:40:08.053305 10744 net.cpp:151] Top shape: 2 32 24 78 (119808)
I1213 10:40:08.053313 10744 net.cpp:159] Memory required for data: 979013504
I1213 10:40:08.053324 10744 layer_factory.hpp:77] Creating layer inception_4e/relu_5x5_reduce
I1213 10:40:08.053335 10744 net.cpp:94] Creating Layer inception_4e/relu_5x5_reduce
I1213 10:40:08.053344 10744 net.cpp:435] inception_4e/relu_5x5_reduce <- inception_4e/5x5_reduce
I1213 10:40:08.053355 10744 net.cpp:396] inception_4e/relu_5x5_reduce -> inception_4e/5x5_reduce (in-place)
I1213 10:40:08.053369 10744 net.cpp:144] Setting up inception_4e/relu_5x5_reduce
I1213 10:40:08.053378 10744 net.cpp:151] Top shape: 2 32 24 78 (119808)
I1213 10:40:08.053385 10744 net.cpp:159] Memory required for data: 979492736
I1213 10:40:08.053392 10744 layer_factory.hpp:77] Creating layer inception_4e/5x5
I1213 10:40:08.053407 10744 net.cpp:94] Creating Layer inception_4e/5x5
I1213 10:40:08.053416 10744 net.cpp:435] inception_4e/5x5 <- inception_4e/5x5_reduce
I1213 10:40:08.053426 10744 net.cpp:409] inception_4e/5x5 -> inception_4e/5x5
I1213 10:40:08.056593 10744 net.cpp:144] Setting up inception_4e/5x5
I1213 10:40:08.056619 10744 net.cpp:151] Top shape: 2 128 24 78 (479232)
I1213 10:40:08.056628 10744 net.cpp:159] Memory required for data: 981409664
I1213 10:40:08.056664 10744 layer_factory.hpp:77] Creating layer inception_4e/relu_5x5
I1213 10:40:08.056679 10744 net.cpp:94] Creating Layer inception_4e/relu_5x5
I1213 10:40:08.056687 10744 net.cpp:435] inception_4e/relu_5x5 <- inception_4e/5x5
I1213 10:40:08.056699 10744 net.cpp:396] inception_4e/relu_5x5 -> inception_4e/5x5 (in-place)
I1213 10:40:08.056715 10744 net.cpp:144] Setting up inception_4e/relu_5x5
I1213 10:40:08.056725 10744 net.cpp:151] Top shape: 2 128 24 78 (479232)
I1213 10:40:08.056732 10744 net.cpp:159] Memory required for data: 983326592
I1213 10:40:08.056740 10744 layer_factory.hpp:77] Creating layer inception_4e/pool
I1213 10:40:08.056773 10744 net.cpp:94] Creating Layer inception_4e/pool
I1213 10:40:08.056783 10744 net.cpp:435] inception_4e/pool <- inception_4d/output_inception_4d/output_0_split_3
I1213 10:40:08.056794 10744 net.cpp:409] inception_4e/pool -> inception_4e/pool
I1213 10:40:08.056866 10744 net.cpp:144] Setting up inception_4e/pool
I1213 10:40:08.056881 10744 net.cpp:151] Top shape: 2 528 24 78 (1976832)
I1213 10:40:08.056888 10744 net.cpp:159] Memory required for data: 991233920
I1213 10:40:08.056896 10744 layer_factory.hpp:77] Creating layer inception_4e/pool_proj
I1213 10:40:08.056912 10744 net.cpp:94] Creating Layer inception_4e/pool_proj
I1213 10:40:08.056921 10744 net.cpp:435] inception_4e/pool_proj <- inception_4e/pool
I1213 10:40:08.056934 10744 net.cpp:409] inception_4e/pool_proj -> inception_4e/pool_proj
I1213 10:40:08.057839 10744 net.cpp:144] Setting up inception_4e/pool_proj
I1213 10:40:08.057858 10744 net.cpp:151] Top shape: 2 128 24 78 (479232)
I1213 10:40:08.057865 10744 net.cpp:159] Memory required for data: 993150848
I1213 10:40:08.057878 10744 layer_factory.hpp:77] Creating layer inception_4e/relu_pool_proj
I1213 10:40:08.057888 10744 net.cpp:94] Creating Layer inception_4e/relu_pool_proj
I1213 10:40:08.057898 10744 net.cpp:435] inception_4e/relu_pool_proj <- inception_4e/pool_proj
I1213 10:40:08.057907 10744 net.cpp:396] inception_4e/relu_pool_proj -> inception_4e/pool_proj (in-place)
I1213 10:40:08.057921 10744 net.cpp:144] Setting up inception_4e/relu_pool_proj
I1213 10:40:08.057931 10744 net.cpp:151] Top shape: 2 128 24 78 (479232)
I1213 10:40:08.057938 10744 net.cpp:159] Memory required for data: 995067776
I1213 10:40:08.057945 10744 layer_factory.hpp:77] Creating layer inception_4e/output
I1213 10:40:08.057956 10744 net.cpp:94] Creating Layer inception_4e/output
I1213 10:40:08.057965 10744 net.cpp:435] inception_4e/output <- inception_4e/1x1
I1213 10:40:08.057973 10744 net.cpp:435] inception_4e/output <- inception_4e/3x3
I1213 10:40:08.057981 10744 net.cpp:435] inception_4e/output <- inception_4e/5x5
I1213 10:40:08.057989 10744 net.cpp:435] inception_4e/output <- inception_4e/pool_proj
I1213 10:40:08.057999 10744 net.cpp:409] inception_4e/output -> inception_4e/output
I1213 10:40:08.058046 10744 net.cpp:144] Setting up inception_4e/output
I1213 10:40:08.058060 10744 net.cpp:151] Top shape: 2 832 24 78 (3115008)
I1213 10:40:08.058068 10744 net.cpp:159] Memory required for data: 1007527808
I1213 10:40:08.058075 10744 layer_factory.hpp:77] Creating layer inception_4e/output_inception_4e/output_0_split
I1213 10:40:08.058086 10744 net.cpp:94] Creating Layer inception_4e/output_inception_4e/output_0_split
I1213 10:40:08.058094 10744 net.cpp:435] inception_4e/output_inception_4e/output_0_split <- inception_4e/output
I1213 10:40:08.058106 10744 net.cpp:409] inception_4e/output_inception_4e/output_0_split -> inception_4e/output_inception_4e/output_0_split_0
I1213 10:40:08.058120 10744 net.cpp:409] inception_4e/output_inception_4e/output_0_split -> inception_4e/output_inception_4e/output_0_split_1
I1213 10:40:08.058131 10744 net.cpp:409] inception_4e/output_inception_4e/output_0_split -> inception_4e/output_inception_4e/output_0_split_2
I1213 10:40:08.058145 10744 net.cpp:409] inception_4e/output_inception_4e/output_0_split -> inception_4e/output_inception_4e/output_0_split_3
I1213 10:40:08.058238 10744 net.cpp:144] Setting up inception_4e/output_inception_4e/output_0_split
I1213 10:40:08.058267 10744 net.cpp:151] Top shape: 2 832 24 78 (3115008)
I1213 10:40:08.058279 10744 net.cpp:151] Top shape: 2 832 24 78 (3115008)
I1213 10:40:08.058286 10744 net.cpp:151] Top shape: 2 832 24 78 (3115008)
I1213 10:40:08.058295 10744 net.cpp:151] Top shape: 2 832 24 78 (3115008)
I1213 10:40:08.058301 10744 net.cpp:159] Memory required for data: 1057367936
I1213 10:40:08.058308 10744 layer_factory.hpp:77] Creating layer inception_5a/1x1
I1213 10:40:08.058324 10744 net.cpp:94] Creating Layer inception_5a/1x1
I1213 10:40:08.058333 10744 net.cpp:435] inception_5a/1x1 <- inception_4e/output_inception_4e/output_0_split_0
I1213 10:40:08.058346 10744 net.cpp:409] inception_5a/1x1 -> inception_5a/1x1
I1213 10:40:08.060216 10744 net.cpp:144] Setting up inception_5a/1x1
I1213 10:40:08.060237 10744 net.cpp:151] Top shape: 2 256 24 78 (958464)
I1213 10:40:08.060245 10744 net.cpp:159] Memory required for data: 1061201792
I1213 10:40:08.060256 10744 layer_factory.hpp:77] Creating layer inception_5a/relu_1x1
I1213 10:40:08.060268 10744 net.cpp:94] Creating Layer inception_5a/relu_1x1
I1213 10:40:08.060276 10744 net.cpp:435] inception_5a/relu_1x1 <- inception_5a/1x1
I1213 10:40:08.060287 10744 net.cpp:396] inception_5a/relu_1x1 -> inception_5a/1x1 (in-place)
I1213 10:40:08.060302 10744 net.cpp:144] Setting up inception_5a/relu_1x1
I1213 10:40:08.060310 10744 net.cpp:151] Top shape: 2 256 24 78 (958464)
I1213 10:40:08.060317 10744 net.cpp:159] Memory required for data: 1065035648
I1213 10:40:08.060323 10744 layer_factory.hpp:77] Creating layer inception_5a/3x3_reduce
I1213 10:40:08.060338 10744 net.cpp:94] Creating Layer inception_5a/3x3_reduce
I1213 10:40:08.060346 10744 net.cpp:435] inception_5a/3x3_reduce <- inception_4e/output_inception_4e/output_0_split_1
I1213 10:40:08.060359 10744 net.cpp:409] inception_5a/3x3_reduce -> inception_5a/3x3_reduce
I1213 10:40:08.061646 10744 net.cpp:144] Setting up inception_5a/3x3_reduce
I1213 10:40:08.061663 10744 net.cpp:151] Top shape: 2 160 24 78 (599040)
I1213 10:40:08.061671 10744 net.cpp:159] Memory required for data: 1067431808
I1213 10:40:08.061682 10744 layer_factory.hpp:77] Creating layer inception_5a/relu_3x3_reduce
I1213 10:40:08.061693 10744 net.cpp:94] Creating Layer inception_5a/relu_3x3_reduce
I1213 10:40:08.061702 10744 net.cpp:435] inception_5a/relu_3x3_reduce <- inception_5a/3x3_reduce
I1213 10:40:08.061712 10744 net.cpp:396] inception_5a/relu_3x3_reduce -> inception_5a/3x3_reduce (in-place)
I1213 10:40:08.061727 10744 net.cpp:144] Setting up inception_5a/relu_3x3_reduce
I1213 10:40:08.061736 10744 net.cpp:151] Top shape: 2 160 24 78 (599040)
I1213 10:40:08.061743 10744 net.cpp:159] Memory required for data: 1069827968
I1213 10:40:08.061749 10744 layer_factory.hpp:77] Creating layer inception_5a/3x3
I1213 10:40:08.061764 10744 net.cpp:94] Creating Layer inception_5a/3x3
I1213 10:40:08.061772 10744 net.cpp:435] inception_5a/3x3 <- inception_5a/3x3_reduce
I1213 10:40:08.061784 10744 net.cpp:409] inception_5a/3x3 -> inception_5a/3x3
I1213 10:40:08.066776 10744 net.cpp:144] Setting up inception_5a/3x3
I1213 10:40:08.066798 10744 net.cpp:151] Top shape: 2 320 24 78 (1198080)
I1213 10:40:08.066807 10744 net.cpp:159] Memory required for data: 1074620288
I1213 10:40:08.066818 10744 layer_factory.hpp:77] Creating layer inception_5a/relu_3x3
I1213 10:40:08.066830 10744 net.cpp:94] Creating Layer inception_5a/relu_3x3
I1213 10:40:08.066840 10744 net.cpp:435] inception_5a/relu_3x3 <- inception_5a/3x3
I1213 10:40:08.066850 10744 net.cpp:396] inception_5a/relu_3x3 -> inception_5a/3x3 (in-place)
I1213 10:40:08.066865 10744 net.cpp:144] Setting up inception_5a/relu_3x3
I1213 10:40:08.066875 10744 net.cpp:151] Top shape: 2 320 24 78 (1198080)
I1213 10:40:08.066882 10744 net.cpp:159] Memory required for data: 1079412608
I1213 10:40:08.066890 10744 layer_factory.hpp:77] Creating layer inception_5a/5x5_reduce
I1213 10:40:08.066905 10744 net.cpp:94] Creating Layer inception_5a/5x5_reduce
I1213 10:40:08.066913 10744 net.cpp:435] inception_5a/5x5_reduce <- inception_4e/output_inception_4e/output_0_split_2
I1213 10:40:08.066944 10744 net.cpp:409] inception_5a/5x5_reduce -> inception_5a/5x5_reduce
I1213 10:40:08.068961 10744 net.cpp:144] Setting up inception_5a/5x5_reduce
I1213 10:40:08.068984 10744 net.cpp:151] Top shape: 2 32 24 78 (119808)
I1213 10:40:08.068992 10744 net.cpp:159] Memory required for data: 1079891840
I1213 10:40:08.069005 10744 layer_factory.hpp:77] Creating layer inception_5a/relu_5x5_reduce
I1213 10:40:08.069017 10744 net.cpp:94] Creating Layer inception_5a/relu_5x5_reduce
I1213 10:40:08.069026 10744 net.cpp:435] inception_5a/relu_5x5_reduce <- inception_5a/5x5_reduce
I1213 10:40:08.069038 10744 net.cpp:396] inception_5a/relu_5x5_reduce -> inception_5a/5x5_reduce (in-place)
I1213 10:40:08.069052 10744 net.cpp:144] Setting up inception_5a/relu_5x5_reduce
I1213 10:40:08.069062 10744 net.cpp:151] Top shape: 2 32 24 78 (119808)
I1213 10:40:08.069069 10744 net.cpp:159] Memory required for data: 1080371072
I1213 10:40:08.069077 10744 layer_factory.hpp:77] Creating layer inception_5a/5x5
I1213 10:40:08.069092 10744 net.cpp:94] Creating Layer inception_5a/5x5
I1213 10:40:08.069100 10744 net.cpp:435] inception_5a/5x5 <- inception_5a/5x5_reduce
I1213 10:40:08.069113 10744 net.cpp:409] inception_5a/5x5 -> inception_5a/5x5
I1213 10:40:08.071575 10744 net.cpp:144] Setting up inception_5a/5x5
I1213 10:40:08.071597 10744 net.cpp:151] Top shape: 2 128 24 78 (479232)
I1213 10:40:08.071604 10744 net.cpp:159] Memory required for data: 1082288000
I1213 10:40:08.071617 10744 layer_factory.hpp:77] Creating layer inception_5a/relu_5x5
I1213 10:40:08.071630 10744 net.cpp:94] Creating Layer inception_5a/relu_5x5
I1213 10:40:08.071638 10744 net.cpp:435] inception_5a/relu_5x5 <- inception_5a/5x5
I1213 10:40:08.071650 10744 net.cpp:396] inception_5a/relu_5x5 -> inception_5a/5x5 (in-place)
I1213 10:40:08.071665 10744 net.cpp:144] Setting up inception_5a/relu_5x5
I1213 10:40:08.071674 10744 net.cpp:151] Top shape: 2 128 24 78 (479232)
I1213 10:40:08.071681 10744 net.cpp:159] Memory required for data: 1084204928
I1213 10:40:08.071687 10744 layer_factory.hpp:77] Creating layer inception_5a/pool
I1213 10:40:08.071701 10744 net.cpp:94] Creating Layer inception_5a/pool
I1213 10:40:08.071708 10744 net.cpp:435] inception_5a/pool <- inception_4e/output_inception_4e/output_0_split_3
I1213 10:40:08.071720 10744 net.cpp:409] inception_5a/pool -> inception_5a/pool
I1213 10:40:08.071790 10744 net.cpp:144] Setting up inception_5a/pool
I1213 10:40:08.071805 10744 net.cpp:151] Top shape: 2 832 24 78 (3115008)
I1213 10:40:08.071812 10744 net.cpp:159] Memory required for data: 1096664960
I1213 10:40:08.071820 10744 layer_factory.hpp:77] Creating layer inception_5a/pool_proj
I1213 10:40:08.071836 10744 net.cpp:94] Creating Layer inception_5a/pool_proj
I1213 10:40:08.071846 10744 net.cpp:435] inception_5a/pool_proj <- inception_5a/pool
I1213 10:40:08.071857 10744 net.cpp:409] inception_5a/pool_proj -> inception_5a/pool_proj
I1213 10:40:08.073020 10744 net.cpp:144] Setting up inception_5a/pool_proj
I1213 10:40:08.073038 10744 net.cpp:151] Top shape: 2 128 24 78 (479232)
I1213 10:40:08.073045 10744 net.cpp:159] Memory required for data: 1098581888
I1213 10:40:08.073058 10744 layer_factory.hpp:77] Creating layer inception_5a/relu_pool_proj
I1213 10:40:08.073070 10744 net.cpp:94] Creating Layer inception_5a/relu_pool_proj
I1213 10:40:08.073078 10744 net.cpp:435] inception_5a/relu_pool_proj <- inception_5a/pool_proj
I1213 10:40:08.073088 10744 net.cpp:396] inception_5a/relu_pool_proj -> inception_5a/pool_proj (in-place)
I1213 10:40:08.073102 10744 net.cpp:144] Setting up inception_5a/relu_pool_proj
I1213 10:40:08.073112 10744 net.cpp:151] Top shape: 2 128 24 78 (479232)
I1213 10:40:08.073119 10744 net.cpp:159] Memory required for data: 1100498816
I1213 10:40:08.073127 10744 layer_factory.hpp:77] Creating layer inception_5a/output
I1213 10:40:08.073137 10744 net.cpp:94] Creating Layer inception_5a/output
I1213 10:40:08.073145 10744 net.cpp:435] inception_5a/output <- inception_5a/1x1
I1213 10:40:08.073153 10744 net.cpp:435] inception_5a/output <- inception_5a/3x3
I1213 10:40:08.073182 10744 net.cpp:435] inception_5a/output <- inception_5a/5x5
I1213 10:40:08.073192 10744 net.cpp:435] inception_5a/output <- inception_5a/pool_proj
I1213 10:40:08.073204 10744 net.cpp:409] inception_5a/output -> inception_5a/output
I1213 10:40:08.073252 10744 net.cpp:144] Setting up inception_5a/output
I1213 10:40:08.073267 10744 net.cpp:151] Top shape: 2 832 24 78 (3115008)
I1213 10:40:08.073274 10744 net.cpp:159] Memory required for data: 1112958848
I1213 10:40:08.073282 10744 layer_factory.hpp:77] Creating layer inception_5a/output_inception_5a/output_0_split
I1213 10:40:08.073293 10744 net.cpp:94] Creating Layer inception_5a/output_inception_5a/output_0_split
I1213 10:40:08.073302 10744 net.cpp:435] inception_5a/output_inception_5a/output_0_split <- inception_5a/output
I1213 10:40:08.073312 10744 net.cpp:409] inception_5a/output_inception_5a/output_0_split -> inception_5a/output_inception_5a/output_0_split_0
I1213 10:40:08.073325 10744 net.cpp:409] inception_5a/output_inception_5a/output_0_split -> inception_5a/output_inception_5a/output_0_split_1
I1213 10:40:08.073338 10744 net.cpp:409] inception_5a/output_inception_5a/output_0_split -> inception_5a/output_inception_5a/output_0_split_2
I1213 10:40:08.073350 10744 net.cpp:409] inception_5a/output_inception_5a/output_0_split -> inception_5a/output_inception_5a/output_0_split_3
I1213 10:40:08.073443 10744 net.cpp:144] Setting up inception_5a/output_inception_5a/output_0_split
I1213 10:40:08.073457 10744 net.cpp:151] Top shape: 2 832 24 78 (3115008)
I1213 10:40:08.073467 10744 net.cpp:151] Top shape: 2 832 24 78 (3115008)
I1213 10:40:08.073475 10744 net.cpp:151] Top shape: 2 832 24 78 (3115008)
I1213 10:40:08.073483 10744 net.cpp:151] Top shape: 2 832 24 78 (3115008)
I1213 10:40:08.073490 10744 net.cpp:159] Memory required for data: 1162798976
I1213 10:40:08.073498 10744 layer_factory.hpp:77] Creating layer inception_5b/1x1
I1213 10:40:08.073513 10744 net.cpp:94] Creating Layer inception_5b/1x1
I1213 10:40:08.073523 10744 net.cpp:435] inception_5b/1x1 <- inception_5a/output_inception_5a/output_0_split_0
I1213 10:40:08.073535 10744 net.cpp:409] inception_5b/1x1 -> inception_5b/1x1
I1213 10:40:08.077536 10744 net.cpp:144] Setting up inception_5b/1x1
I1213 10:40:08.077558 10744 net.cpp:151] Top shape: 2 384 24 78 (1437696)
I1213 10:40:08.077566 10744 net.cpp:159] Memory required for data: 1168549760
I1213 10:40:08.077579 10744 layer_factory.hpp:77] Creating layer inception_5b/relu_1x1
I1213 10:40:08.077590 10744 net.cpp:94] Creating Layer inception_5b/relu_1x1
I1213 10:40:08.077600 10744 net.cpp:435] inception_5b/relu_1x1 <- inception_5b/1x1
I1213 10:40:08.077610 10744 net.cpp:396] inception_5b/relu_1x1 -> inception_5b/1x1 (in-place)
I1213 10:40:08.077625 10744 net.cpp:144] Setting up inception_5b/relu_1x1
I1213 10:40:08.077635 10744 net.cpp:151] Top shape: 2 384 24 78 (1437696)
I1213 10:40:08.077641 10744 net.cpp:159] Memory required for data: 1174300544
I1213 10:40:08.077648 10744 layer_factory.hpp:77] Creating layer inception_5b/3x3_reduce
I1213 10:40:08.077663 10744 net.cpp:94] Creating Layer inception_5b/3x3_reduce
I1213 10:40:08.077672 10744 net.cpp:435] inception_5b/3x3_reduce <- inception_5a/output_inception_5a/output_0_split_1
I1213 10:40:08.077685 10744 net.cpp:409] inception_5b/3x3_reduce -> inception_5b/3x3_reduce
I1213 10:40:08.079182 10744 net.cpp:144] Setting up inception_5b/3x3_reduce
I1213 10:40:08.079200 10744 net.cpp:151] Top shape: 2 192 24 78 (718848)
I1213 10:40:08.079207 10744 net.cpp:159] Memory required for data: 1177175936
I1213 10:40:08.079219 10744 layer_factory.hpp:77] Creating layer inception_5b/relu_3x3_reduce
I1213 10:40:08.079231 10744 net.cpp:94] Creating Layer inception_5b/relu_3x3_reduce
I1213 10:40:08.079239 10744 net.cpp:435] inception_5b/relu_3x3_reduce <- inception_5b/3x3_reduce
I1213 10:40:08.079251 10744 net.cpp:396] inception_5b/relu_3x3_reduce -> inception_5b/3x3_reduce (in-place)
I1213 10:40:08.079263 10744 net.cpp:144] Setting up inception_5b/relu_3x3_reduce
I1213 10:40:08.079273 10744 net.cpp:151] Top shape: 2 192 24 78 (718848)
I1213 10:40:08.079298 10744 net.cpp:159] Memory required for data: 1180051328
I1213 10:40:08.079306 10744 layer_factory.hpp:77] Creating layer inception_5b/3x3
I1213 10:40:08.079321 10744 net.cpp:94] Creating Layer inception_5b/3x3
I1213 10:40:08.079330 10744 net.cpp:435] inception_5b/3x3 <- inception_5b/3x3_reduce
I1213 10:40:08.079342 10744 net.cpp:409] inception_5b/3x3 -> inception_5b/3x3
I1213 10:40:08.085990 10744 net.cpp:144] Setting up inception_5b/3x3
I1213 10:40:08.086012 10744 net.cpp:151] Top shape: 2 384 24 78 (1437696)
I1213 10:40:08.086019 10744 net.cpp:159] Memory required for data: 1185802112
I1213 10:40:08.086032 10744 layer_factory.hpp:77] Creating layer inception_5b/relu_3x3
I1213 10:40:08.086045 10744 net.cpp:94] Creating Layer inception_5b/relu_3x3
I1213 10:40:08.086053 10744 net.cpp:435] inception_5b/relu_3x3 <- inception_5b/3x3
I1213 10:40:08.086064 10744 net.cpp:396] inception_5b/relu_3x3 -> inception_5b/3x3 (in-place)
I1213 10:40:08.086078 10744 net.cpp:144] Setting up inception_5b/relu_3x3
I1213 10:40:08.086088 10744 net.cpp:151] Top shape: 2 384 24 78 (1437696)
I1213 10:40:08.086096 10744 net.cpp:159] Memory required for data: 1191552896
I1213 10:40:08.086102 10744 layer_factory.hpp:77] Creating layer inception_5b/5x5_reduce
I1213 10:40:08.086117 10744 net.cpp:94] Creating Layer inception_5b/5x5_reduce
I1213 10:40:08.086125 10744 net.cpp:435] inception_5b/5x5_reduce <- inception_5a/output_inception_5a/output_0_split_2
I1213 10:40:08.086139 10744 net.cpp:409] inception_5b/5x5_reduce -> inception_5b/5x5_reduce
I1213 10:40:08.086829 10744 net.cpp:144] Setting up inception_5b/5x5_reduce
I1213 10:40:08.086848 10744 net.cpp:151] Top shape: 2 48 24 78 (179712)
I1213 10:40:08.086854 10744 net.cpp:159] Memory required for data: 1192271744
I1213 10:40:08.086865 10744 layer_factory.hpp:77] Creating layer inception_5b/relu_5x5_reduce
I1213 10:40:08.086876 10744 net.cpp:94] Creating Layer inception_5b/relu_5x5_reduce
I1213 10:40:08.086885 10744 net.cpp:435] inception_5b/relu_5x5_reduce <- inception_5b/5x5_reduce
I1213 10:40:08.086895 10744 net.cpp:396] inception_5b/relu_5x5_reduce -> inception_5b/5x5_reduce (in-place)
I1213 10:40:08.086910 10744 net.cpp:144] Setting up inception_5b/relu_5x5_reduce
I1213 10:40:08.086918 10744 net.cpp:151] Top shape: 2 48 24 78 (179712)
I1213 10:40:08.086925 10744 net.cpp:159] Memory required for data: 1192990592
I1213 10:40:08.086932 10744 layer_factory.hpp:77] Creating layer inception_5b/5x5
I1213 10:40:08.086946 10744 net.cpp:94] Creating Layer inception_5b/5x5
I1213 10:40:08.086954 10744 net.cpp:435] inception_5b/5x5 <- inception_5b/5x5_reduce
I1213 10:40:08.086967 10744 net.cpp:409] inception_5b/5x5 -> inception_5b/5x5
I1213 10:40:08.088416 10744 net.cpp:144] Setting up inception_5b/5x5
I1213 10:40:08.088438 10744 net.cpp:151] Top shape: 2 128 24 78 (479232)
I1213 10:40:08.088444 10744 net.cpp:159] Memory required for data: 1194907520
I1213 10:40:08.088456 10744 layer_factory.hpp:77] Creating layer inception_5b/relu_5x5
I1213 10:40:08.088467 10744 net.cpp:94] Creating Layer inception_5b/relu_5x5
I1213 10:40:08.088476 10744 net.cpp:435] inception_5b/relu_5x5 <- inception_5b/5x5
I1213 10:40:08.088486 10744 net.cpp:396] inception_5b/relu_5x5 -> inception_5b/5x5 (in-place)
I1213 10:40:08.088500 10744 net.cpp:144] Setting up inception_5b/relu_5x5
I1213 10:40:08.088508 10744 net.cpp:151] Top shape: 2 128 24 78 (479232)
I1213 10:40:08.088515 10744 net.cpp:159] Memory required for data: 1196824448
I1213 10:40:08.088522 10744 layer_factory.hpp:77] Creating layer inception_5b/pool
I1213 10:40:08.088533 10744 net.cpp:94] Creating Layer inception_5b/pool
I1213 10:40:08.088541 10744 net.cpp:435] inception_5b/pool <- inception_5a/output_inception_5a/output_0_split_3
I1213 10:40:08.088552 10744 net.cpp:409] inception_5b/pool -> inception_5b/pool
I1213 10:40:08.089568 10744 net.cpp:144] Setting up inception_5b/pool
I1213 10:40:08.089596 10744 net.cpp:151] Top shape: 2 832 24 78 (3115008)
I1213 10:40:08.089603 10744 net.cpp:159] Memory required for data: 1209284480
I1213 10:40:08.089633 10744 layer_factory.hpp:77] Creating layer inception_5b/pool_proj
I1213 10:40:08.089653 10744 net.cpp:94] Creating Layer inception_5b/pool_proj
I1213 10:40:08.089663 10744 net.cpp:435] inception_5b/pool_proj <- inception_5b/pool
I1213 10:40:08.089678 10744 net.cpp:409] inception_5b/pool_proj -> inception_5b/pool_proj
I1213 10:40:08.090904 10744 net.cpp:144] Setting up inception_5b/pool_proj
I1213 10:40:08.090924 10744 net.cpp:151] Top shape: 2 128 24 78 (479232)
I1213 10:40:08.090931 10744 net.cpp:159] Memory required for data: 1211201408
I1213 10:40:08.090945 10744 layer_factory.hpp:77] Creating layer inception_5b/relu_pool_proj
I1213 10:40:08.090956 10744 net.cpp:94] Creating Layer inception_5b/relu_pool_proj
I1213 10:40:08.090965 10744 net.cpp:435] inception_5b/relu_pool_proj <- inception_5b/pool_proj
I1213 10:40:08.090976 10744 net.cpp:396] inception_5b/relu_pool_proj -> inception_5b/pool_proj (in-place)
I1213 10:40:08.090991 10744 net.cpp:144] Setting up inception_5b/relu_pool_proj
I1213 10:40:08.091001 10744 net.cpp:151] Top shape: 2 128 24 78 (479232)
I1213 10:40:08.091008 10744 net.cpp:159] Memory required for data: 1213118336
I1213 10:40:08.091015 10744 layer_factory.hpp:77] Creating layer inception_5b/output
I1213 10:40:08.091027 10744 net.cpp:94] Creating Layer inception_5b/output
I1213 10:40:08.091034 10744 net.cpp:435] inception_5b/output <- inception_5b/1x1
I1213 10:40:08.091043 10744 net.cpp:435] inception_5b/output <- inception_5b/3x3
I1213 10:40:08.091053 10744 net.cpp:435] inception_5b/output <- inception_5b/5x5
I1213 10:40:08.091060 10744 net.cpp:435] inception_5b/output <- inception_5b/pool_proj
I1213 10:40:08.091070 10744 net.cpp:409] inception_5b/output -> inception_5b/output
I1213 10:40:08.091116 10744 net.cpp:144] Setting up inception_5b/output
I1213 10:40:08.091131 10744 net.cpp:151] Top shape: 2 1024 24 78 (3833856)
I1213 10:40:08.091138 10744 net.cpp:159] Memory required for data: 1228453760
I1213 10:40:08.091145 10744 layer_factory.hpp:77] Creating layer pool5/drop_s1
I1213 10:40:08.091159 10744 net.cpp:94] Creating Layer pool5/drop_s1
I1213 10:40:08.091167 10744 net.cpp:435] pool5/drop_s1 <- inception_5b/output
I1213 10:40:08.091179 10744 net.cpp:409] pool5/drop_s1 -> pool5/drop_s1
I1213 10:40:08.091243 10744 net.cpp:144] Setting up pool5/drop_s1
I1213 10:40:08.091258 10744 net.cpp:151] Top shape: 2 1024 24 78 (3833856)
I1213 10:40:08.091264 10744 net.cpp:159] Memory required for data: 1243789184
I1213 10:40:08.091271 10744 layer_factory.hpp:77] Creating layer pool5/drop_s1_pool5/drop_s1_0_split
I1213 10:40:08.091284 10744 net.cpp:94] Creating Layer pool5/drop_s1_pool5/drop_s1_0_split
I1213 10:40:08.091292 10744 net.cpp:435] pool5/drop_s1_pool5/drop_s1_0_split <- pool5/drop_s1
I1213 10:40:08.091303 10744 net.cpp:409] pool5/drop_s1_pool5/drop_s1_0_split -> pool5/drop_s1_pool5/drop_s1_0_split_0
I1213 10:40:08.091315 10744 net.cpp:409] pool5/drop_s1_pool5/drop_s1_0_split -> pool5/drop_s1_pool5/drop_s1_0_split_1
I1213 10:40:08.091374 10744 net.cpp:144] Setting up pool5/drop_s1_pool5/drop_s1_0_split
I1213 10:40:08.091388 10744 net.cpp:151] Top shape: 2 1024 24 78 (3833856)
I1213 10:40:08.091398 10744 net.cpp:151] Top shape: 2 1024 24 78 (3833856)
I1213 10:40:08.091404 10744 net.cpp:159] Memory required for data: 1274460032
I1213 10:40:08.091411 10744 layer_factory.hpp:77] Creating layer cvg/classifier
I1213 10:40:08.091426 10744 net.cpp:94] Creating Layer cvg/classifier
I1213 10:40:08.091435 10744 net.cpp:435] cvg/classifier <- pool5/drop_s1_pool5/drop_s1_0_split_0
I1213 10:40:08.091449 10744 net.cpp:409] cvg/classifier -> cvg/classifier
I1213 10:40:08.091825 10744 net.cpp:144] Setting up cvg/classifier
I1213 10:40:08.091842 10744 net.cpp:151] Top shape: 2 1 24 78 (3744)
I1213 10:40:08.091850 10744 net.cpp:159] Memory required for data: 1274475008
I1213 10:40:08.091861 10744 layer_factory.hpp:77] Creating layer coverage/sig
I1213 10:40:08.091874 10744 net.cpp:94] Creating Layer coverage/sig
I1213 10:40:08.091882 10744 net.cpp:435] coverage/sig <- cvg/classifier
I1213 10:40:08.091910 10744 net.cpp:409] coverage/sig -> coverage
I1213 10:40:08.091960 10744 net.cpp:144] Setting up coverage/sig
I1213 10:40:08.091975 10744 net.cpp:151] Top shape: 2 1 24 78 (3744)
I1213 10:40:08.091982 10744 net.cpp:159] Memory required for data: 1274489984
I1213 10:40:08.091989 10744 layer_factory.hpp:77] Creating layer coverage_coverage/sig_0_split
I1213 10:40:08.092000 10744 net.cpp:94] Creating Layer coverage_coverage/sig_0_split
I1213 10:40:08.092008 10744 net.cpp:435] coverage_coverage/sig_0_split <- coverage
I1213 10:40:08.092020 10744 net.cpp:409] coverage_coverage/sig_0_split -> coverage_coverage/sig_0_split_0
I1213 10:40:08.092031 10744 net.cpp:409] coverage_coverage/sig_0_split -> coverage_coverage/sig_0_split_1
I1213 10:40:08.092090 10744 net.cpp:144] Setting up coverage_coverage/sig_0_split
I1213 10:40:08.092104 10744 net.cpp:151] Top shape: 2 1 24 78 (3744)
I1213 10:40:08.092113 10744 net.cpp:151] Top shape: 2 1 24 78 (3744)
I1213 10:40:08.092119 10744 net.cpp:159] Memory required for data: 1274519936
I1213 10:40:08.092126 10744 layer_factory.hpp:77] Creating layer bbox/regressor
I1213 10:40:08.092142 10744 net.cpp:94] Creating Layer bbox/regressor
I1213 10:40:08.092151 10744 net.cpp:435] bbox/regressor <- pool5/drop_s1_pool5/drop_s1_0_split_1
I1213 10:40:08.092164 10744 net.cpp:409] bbox/regressor -> bboxes
I1213 10:40:08.092561 10744 net.cpp:144] Setting up bbox/regressor
I1213 10:40:08.092577 10744 net.cpp:151] Top shape: 2 4 24 78 (14976)
I1213 10:40:08.092584 10744 net.cpp:159] Memory required for data: 1274579840
I1213 10:40:08.092595 10744 layer_factory.hpp:77] Creating layer bboxes_bbox/regressor_0_split
I1213 10:40:08.092607 10744 net.cpp:94] Creating Layer bboxes_bbox/regressor_0_split
I1213 10:40:08.092615 10744 net.cpp:435] bboxes_bbox/regressor_0_split <- bboxes
I1213 10:40:08.092627 10744 net.cpp:409] bboxes_bbox/regressor_0_split -> bboxes_bbox/regressor_0_split_0
I1213 10:40:08.092638 10744 net.cpp:409] bboxes_bbox/regressor_0_split -> bboxes_bbox/regressor_0_split_1
I1213 10:40:08.092700 10744 net.cpp:144] Setting up bboxes_bbox/regressor_0_split
I1213 10:40:08.092715 10744 net.cpp:151] Top shape: 2 4 24 78 (14976)
I1213 10:40:08.092725 10744 net.cpp:151] Top shape: 2 4 24 78 (14976)
I1213 10:40:08.092730 10744 net.cpp:159] Memory required for data: 1274699648
I1213 10:40:08.092737 10744 layer_factory.hpp:77] Creating layer bbox_mask
I1213 10:40:08.092751 10744 net.cpp:94] Creating Layer bbox_mask
I1213 10:40:08.092759 10744 net.cpp:435] bbox_mask <- bboxes_bbox/regressor_0_split_0
I1213 10:40:08.092770 10744 net.cpp:435] bbox_mask <- coverage-block
I1213 10:40:08.092782 10744 net.cpp:409] bbox_mask -> bboxes-masked
I1213 10:40:08.092825 10744 net.cpp:144] Setting up bbox_mask
I1213 10:40:08.092839 10744 net.cpp:151] Top shape: 2 4 24 78 (14976)
I1213 10:40:08.092845 10744 net.cpp:159] Memory required for data: 1274759552
I1213 10:40:08.092852 10744 layer_factory.hpp:77] Creating layer bbox-norm
I1213 10:40:08.092864 10744 net.cpp:94] Creating Layer bbox-norm
I1213 10:40:08.092872 10744 net.cpp:435] bbox-norm <- bboxes-masked
I1213 10:40:08.092881 10744 net.cpp:435] bbox-norm <- size-block_size-block_0_split_1
I1213 10:40:08.092892 10744 net.cpp:409] bbox-norm -> bboxes-masked-norm
I1213 10:40:08.092933 10744 net.cpp:144] Setting up bbox-norm
I1213 10:40:08.092947 10744 net.cpp:151] Top shape: 2 4 24 78 (14976)
I1213 10:40:08.092953 10744 net.cpp:159] Memory required for data: 1274819456
I1213 10:40:08.092960 10744 layer_factory.hpp:77] Creating layer bbox-obj-norm
I1213 10:40:08.092972 10744 net.cpp:94] Creating Layer bbox-obj-norm
I1213 10:40:08.092979 10744 net.cpp:435] bbox-obj-norm <- bboxes-masked-norm
I1213 10:40:08.092989 10744 net.cpp:435] bbox-obj-norm <- obj-block_obj-block_0_split_1
I1213 10:40:08.092999 10744 net.cpp:409] bbox-obj-norm -> bboxes-obj-masked-norm
I1213 10:40:08.093040 10744 net.cpp:144] Setting up bbox-obj-norm
I1213 10:40:08.093053 10744 net.cpp:151] Top shape: 2 4 24 78 (14976)
I1213 10:40:08.093060 10744 net.cpp:159] Memory required for data: 1274879360
I1213 10:40:08.093081 10744 layer_factory.hpp:77] Creating layer bbox_loss
I1213 10:40:08.093096 10744 net.cpp:94] Creating Layer bbox_loss
I1213 10:40:08.093103 10744 net.cpp:435] bbox_loss <- bboxes-obj-masked-norm
I1213 10:40:08.093112 10744 net.cpp:435] bbox_loss <- bbox-obj-label-norm
I1213 10:40:08.093123 10744 net.cpp:409] bbox_loss -> loss_bbox
…
I1213 10:40:08.093381 10744 net.cpp:154]     with loss weight 1
I1213 10:40:08.093392 10744 net.cpp:159] Memory required for data: 1274879368
I1213 10:40:08.093400 10744 layer_factory.hpp:77] Creating layer cluster
I1213 10:40:08.900120 10744 net.cpp:94] Creating Layer cluster
I1213 10:40:08.900202 10744 net.cpp:435] cluster <- coverage_coverage/sig_0_split_1
I1213 10:40:08.900229 10744 net.cpp:435] cluster <- bboxes_bbox/regressor_0_split_1
I1213 10:40:08.900248 10744 net.cpp:409] cluster -> bbox-list
I1213 10:40:10.041884 10744 net.cpp:144] Setting up cluster
I1213 10:40:10.041939 10744 net.cpp:151] Top shape: 2 50 5 (500)
I1213 10:40:10.041949 10744 net.cpp:159] Memory required for data: 1274881368
I1213 10:40:10.041965 10744 layer_factory.hpp:77] Creating layer cluster_gt
I1213 10:40:10.042059 10744 net.cpp:94] Creating Layer cluster_gt
I1213 10:40:10.042080 10744 net.cpp:435] cluster_gt <- coverage-label_slice-label_4_split_1
I1213 10:40:10.042098 10744 net.cpp:435] cluster_gt <- bbox-label_slice-label_1_split_1
I1213 10:40:10.042111 10744 net.cpp:409] cluster_gt -> bbox-list-label
I1213 10:40:10.042289 10744 net.cpp:144] Setting up cluster_gt
I1213 10:40:10.042304 10744 net.cpp:151] Top shape: 2 50 5 (500)
I1213 10:40:10.042311 10744 net.cpp:159] Memory required for data: 1274883368
I1213 10:40:10.042318 10744 layer_factory.hpp:77] Creating layer score
I1213 10:40:10.042660 10744 net.cpp:94] Creating Layer score
I1213 10:40:10.042675 10744 net.cpp:435] score <- bbox-list-label
I1213 10:40:10.042685 10744 net.cpp:435] score <- bbox-list
I1213 10:40:10.042695 10744 net.cpp:409] score -> bbox-list-scored
I1213 10:40:10.042840 10744 net.cpp:144] Setting up score
I1213 10:40:10.042855 10744 net.cpp:151] Top shape: 2 50 5 (500)
I1213 10:40:10.042861 10744 net.cpp:159] Memory required for data: 1274885368
I1213 10:40:10.042868 10744 layer_factory.hpp:77] Creating layer mAP
I1213 10:40:10.042904 10744 net.cpp:94] Creating Layer mAP
I1213 10:40:10.042915 10744 net.cpp:435] mAP <- bbox-list-scored
I1213 10:40:10.042935 10744 net.cpp:409] mAP -> mAP
I1213 10:40:10.042953 10744 net.cpp:409] mAP -> precision
I1213 10:40:10.042963 10744 net.cpp:409] mAP -> recall
I1213 10:40:10.043073 10744 net.cpp:144] Setting up mAP
I1213 10:40:10.043088 10744 net.cpp:151] Top shape: 1 (1)
I1213 10:40:10.043095 10744 net.cpp:151] Top shape: 1 (1)
I1213 10:40:10.043102 10744 net.cpp:151] Top shape: 1 (1)
I1213 10:40:10.043108 10744 net.cpp:159] Memory required for data: 1274885380
I1213 10:40:10.043115 10744 net.cpp:222] mAP does not need backward computation.
I1213 10:40:10.043123 10744 net.cpp:222] score does not need backward computation.
I1213 10:40:10.043129 10744 net.cpp:222] cluster_gt does not need backward computation.
I1213 10:40:10.043136 10744 net.cpp:222] cluster does not need backward computation.
…
